T04 - Pytorch ConvLSTM/checkpoint.pt (torch, 63591 bytes, 37 tensors)

sequential.convlstm1.convLSTMcell.W_ci f4 [10, 1, 32]
00000000: 993f a03e 3a80 8b3e 5dc8 863d 7388 a23e
00000010: 7265 a63e 1af3 3b3f 918c 143f fc1e 70bd
00000020: 9657 0a3f 28bc 803e d1d0 0b3f 4614 693f
00000030: df19 d83d 168c 493f 7cad 683f 7e24 553e
00000040: 5d58 783e e315 993e d3a7 3a3f e47a 153f
00000050: a51e 273e 661a c93e f984 5f3f a455 163e
00000060: fded 2a3f c1c8 5d3f ec8d 5d3f 4c7d 353f
00000070: 45b0 4e3f df61 c73d a597 893f 5f6b 183d
00000080: 1355 283e 819b 853c 951e 073f b1b4 c33e
00000090: 8c0b cd3e 2064 dc3e 00f0 8b3f cd60 973e
000000a0: 9cf4 373e 42ab 2d3f 4b1b 5f3f 0061 553f
000000b0: 1d4a b53e e1dd 1e3f 78f1 553f 5e4e 383f
000000c0: 66cc fb3d b197 6b3f 35de 533f b58b 703e
000000d0: 46b4 fd3e 4f70 c63e 4d35 273f 32c8 743f
000000e0: 9f34 323f e972 5b3f 5264 a53e 8a7f 853f
000000f0: 505e 4c3f 2e83 03be 008b 5b3f 5403 583f
00000100: 75a9 733f 4961 2a3d 9e38 b63e 597f 943e
00000110: c3ea d33e b08a be3d a2b4 083f 78d5 f53e
00000120: 851c 873f 8ba2 373f 6585 103e 3488 8c3e
00000130: 9655 983f 05a5 663f 91f1 3c3f 2273 423e
00000140: 93f9 353e 5ec2 483f 721c 2a3f 75db 853f
00000150: c027 483f d78b 413f 8a53 303f 9c0a 7f3e
00000160: 13e4 553e d617 a63e a1fd 173f 341b a83e
00000170: 64af 393f 7d61 0f3f 494c a13e e2fe 653f
00000180: 89ae d23e 403a 633f 192d 463e a783 3a3f
00000190: 2df6 653e 6ab3 1e3d 0e0d e13e 2ba7 1a3f
000001a0: bffa 963e 4794 f83d 67d0 fe3e f576 1b3f
000001b0: 4ad9 203e 5509 8f3e 0153 033f 3526 573f
000001c0: 66ae 513f 03eb 123e 3ed7 dc3e dd97 3a3d
000001d0: 9b3b 8cbd d5b7 2ebe ea22 0c3f 08bb 443f
000001e0: 057b 5a3f b84e 0c3f 0ff3 163f 300e f63e
000001f0: bff3 633f 1a98 163e 83d9 423e 0442 4a3f
00000200: 670c 913e 1bf7 1b3f e3a1 823f 4ba6 173d
00000210: b127 3b3f a79e 343f cd6c 753f 45ef 8f3e
00000220: 9d46 b23d 73c1 5f3f ed08 423f 751e 893e
00000230: 2a50 893e 6a19 8c3e 4b87 5f3f 3bb7 a73e
00000240: 28aa 2d3f bb6a 573f 1fe9 5b3f f6ba 683f
00000250: 5612 293f 0017 593e e682 c73d 6e56 cc3e
00000260: e0cc 123f f422 cb3e fbe7 e63e 4972 513f
00000270: b1bb 7c3e c950 773f 16b3 553e aa89 d83e
00000280: 4710 5fbc cfdc 3f3f 5a8e 023f 9dcc 223d
00000290: 8b2d ac3e 1b9a 7a3f 53e2 373f 7f5f 8a3f
000002a0: 18c3 bb3e 4427 e83e a3e1 ad3e 1785 3bbd
000002b0: d9d2 603e 1136 0f3f 46ca a33e b7ce 0e3f
000002c0: 6f1f 013f d516 7c3f b095 dd3d cbb1 0c3f
000002d0: c3ab db3e 334d 653f 6b57 283f 244e e33e
000002e0: 20df 393f 79ed d03e dd60 073f fcae 593f
000002f0: 0387 2f3f 4d82 883e bd6a 183f b4ea ef3e
00000300: d825 583f 18e2 8d3e 5ae9 553e e0b7 173f
00000310: 004b 763e 7579 453f 0b55 573f a85b 213b
00000320: 5460 3c3d 2a37 dc3d d479 953e 1122 8f3e
00000330: ac57 0e3f c605 b83e 5615 fc3e c10c 183e
00000340: 537a 783e 32c7 b53e 07d1 5b3f 68f3 b43e
00000350: 35cf 263f 475e 763f 1ad9 ab3e c458 4a3f
00000360: 83e4 573f d605 183f ff09 703e 8535 383c
00000370: 0cde 0a3f 88d9 c33e 935c c23e 7cd8 313f
00000380: 3268 d23e 2d23 b23d 888a db3e 7cc9 533f
00000390: b153 893e c795 813e bf76 1d3f 1fae 823e
000003a0: 2b0a 603f b359 923f e4d4 8d3e 6466 ba3e
000003b0: 40d3 573e c43e d13e 47c1 2b3f 3108 7e3e
000003c0: 6a3c 23be 6633 293f 206a b43e e42f 563f
000003d0: a23d 123e 79a8 1a3f d741 623d 8da9 b63e
000003e0: 9227 313e 1f3f 033f 4686 423f a7f8 583f
000003f0: 7bf3 4c3f 5228 cb3e ac59 bd3e 78f9 063f
0.3129852 0.27246267 0.06581185 0.31744727 0.32499272 0.7341782 0.5802699 -0.0586233
0.54039896 0.25143552 0.54615504 0.9104656 0.105518095 0.7872938 0.90889716 0.20814702
0.24252458 0.2989951 0.7291233 0.5839064 0.16320284 0.39277953 0.87312275 0.14681107
0.6676939 0.8663445 0.8654468 0.7089431 0.80737716 0.09735464 1.0749403 0.037211772
0.16438703 0.016309502 0.5278104 0.38223794 0.40047872 0.4304514 1.0932617 0.2956604
0.17964405 0.67839444 0.8715102 0.83351135 0.35408106 0.6205731 0.8357158 0.7199458
0.12294845 0.9202834 0.82760936 0.23490794 0.495516 0.3875756 0.65315706 0.95617974
0.69611543 0.85722214 0.323031 1.0429547 0.7983141 -0.1284301 0.8575897 0.8438008
0.95180446 0.041596685 0.3559007 0.2900341 0.41390046 0.09303796 0.53400624 0.48014426
1.0555578 0.71732396 0.14113386 0.27447665 1.1901119 0.9009555 0.738061 0.18989232
0.17770986 0.7842158 0.66449654 1.0457598 0.78185654 0.75604004 0.6887747 0.24906391
0.20887785 0.3244006 0.5937138 0.32833254 0.7253325 0.5600813 0.31503513 0.89842045
0.41148785 0.8876076 0.19353141 0.72857136 0.2245719 0.03874532 0.43955272 0.6041133
0.2948818 0.12137657 0.49768373 0.6072839 0.15707889 0.27936807 0.5129853 0.84042674
0.81906736 0.14347462 0.43132967 0.045554984 -0.06847306 -0.17062314 0.54740775 0.7684789
0.8534396 0.54807615 0.5896463 0.480577 0.890438 0.1470646 0.19028287 0.7900698
0.28329775 0.6092393 1.0205654 0.037023824 0.7310744 0.70554584 0.9586914 0.28112236
0.08704875 0.87404555 0.7579487 0.2678105 0.26818973 0.2736314 0.87315816 0.3275698
0.6783776 0.8414723 0.8590259 0.9091028 0.66043603 0.2120018 0.09741764 0.3990969
0.57343864 0.39675105 0.45098862 0.8181501 0.24680974 0.96607643 0.20869097 0.4229253
-0.013614721 0.749463 0.5099846 0.039745916 0.33628497 0.97891396 0.7182972 1.0810393
0.36672282 0.45342457 0.3396121 -0.04578122 0.21955432 0.55941874 0.3199026 0.5578417
0.5043859 0.9847234 0.10819566 0.5495879 0.4290448 0.8957092 0.6575839 0.44395554
0.72606087 0.40806177 0.52882177 0.8503263 0.68565387 0.26661912 0.5953787 0.46858752
0.84432745 0.27711558 0.20889798 0.59264946 0.24052048 0.77138454 0.8411414 0.0024621282
0.045990303 0.10752709 0.2919451 0.27955678 0.55602527 0.35941905 0.49235028 0.14848615
0.24265413 0.35503536 0.85865825 0.35341954 0.6515992 0.96237606 0.33564073 0.79041696
0.84333056 0.59383905 0.23441313 0.011243229 0.54245067 0.382519 0.37961254 0.69470954
0.4109512 0.086981155 0.42879128 0.82729316 0.26821664 0.25309584 0.6150932 0.2552347
0.87515515 1.1433624 0.27701485 0.36406243 0.21076679 0.408682 0.6709179 0.24807812
-0.15941015 0.6609405 0.35237217 0.83666825 0.14281324 0.6041332 0.05523857 0.35676232
0.17300251 0.5126819 0.75986135 0.84754413 0.8005902 0.396792 0.36982477 0.5272441

sequential.convlstm1.convLSTMcell.W_co f4 [10, 1, 32]
00000000: d549 67bc 4db5 683f 0102 1e3d 30ba 223f
00000010: 0220 023f 472b 213f 37e8 6d3f a667 28bd
00000020: 7106 693f d6d3 f93e e927 693f 38f5 653f
00000030: 0d8b 863f 82b0 023e a5da 853f d3f4 163f
00000040: 2ea3 eb3d ac0a 323f 9d26 613f e42b 5f3f
00000050: fef7 273e 5c11 1b3f bce4 673f e4ec 0f3d
00000060: e815 e53e 52eb 7c3f c2dc 503f 752c fb3e
00000070: 3b06 623f c463 963e 5c9e 0c3f 1a11 493f
00000080: b26d 4c3e 165a 213f 581e 253f 8595 353e
00000090: 853b 3c3f f9b8 513f f072 3e3e 3791 4c3f
000000a0: 68c6 273f 38e0 133f 879b 383f e58a 683f
000000b0: 78b8 e83e 1e1d 9f3e 456c 7c3f e381 863f
000000c0: 1676 c23d 1391 283c 61b5 2b3f e54f 413f
000000d0: e665 513f bcb5 8d3d 6349 7f3f 747f ff3e
000000e0: fdb8 533f a264 073f 254c 383e 5c07 443f
000000f0: c614 5ebb eb93 4b3f 45a9 a83d 197d 4e3f
00000100: 3e5d ef3e 4997 a83e d0af 613e 45f7 fc3e
00000110: 765b 6c3f 5654 dd3e 41fd 9e3e 2749 6f3e
00000120: e82a 4b3f b5cb 373f 5d44 623e 549e a33e
00000130: 817b 0c3f baf8 8a3e d526 6e3f 3fa9 053e
00000140: 9bff 263f 2532 023f 10f4 963d 0bcd 453f
00000150: 9c06 f43e 75a9 463f 60bf 153f 509a 5f3e
00000160: dc7e 3c3e b350 593f b0d0 e23e 597f e53e
00000170: 5eee 713f a16e 5a3f 0419 d73e 5c61 e93d
00000180: 38ab 023f 6968 753f ee51 b63d 6d7d 7c3f
00000190: 97e5 0b3e 46c1 033f 21c1 623f 26f4 ec3e
000001a0: 6ab1 813e 76f5 5c3f 63b9 633f 07f4 333f
000001b0: 0564 a63e 66b1 4e3f c40c 253d c2e6 303f
000001c0: ac34 d83e caa6 b43d 4986 333f a9b9 703e
000001d0: 5067 f83d d39e b23e 96b4 093f 3f21 d73c
000001e0: 57b0 ca3e 77c1 063f 4f50 533e a940 743e
000001f0: 6bbe 593f 9eee 683f f76f 0b3d 696d e63d
00000200: a23a c43e 6d3e 1b3f dab9 0d3f 2a31 2f3f
00000210: 090a 2d3d dd7a 603e c6a9 1d3f ff65 493f
00000220: 2929 623e afee 8e3e 6eac 033e 2d3c a03e
00000230: 5f56 f33e 5d9e c23e 7760 0c3f 64d6 603f
00000240: caf5 353f b1c9 483e 5b07 193f a180 5f3f
00000250: 9ca5 053f eb28 763f d792 de3d eac4 ac3e
00000260: 8450 ab3e 12d9 3f3e 75c6 1b3f 9ab2 053f
00000270: 1fef 953e 4056 3d3f 3f32 5a3f ee5e 033e
00000280: d385 513f b8d4 9f3e 9a0e 493e 169e 103f
00000290: 21f5 3d3f 7fe1 723f a399 fd3e 82ab 903e
000002a0: f116 663f dde5 533f 9060 b83e 9744 e63d
000002b0: ed16 243f ab99 c53e 15bc 7e3e 7ad9 363f
000002c0: 9f0a e83e b1a6 113f fed4 5d3f 6ec7 223f
000002d0: 57b3 4d3f 593b 2c3f 17ff 133f d9ad 2e3f
000002e0: adaa 1bbe a67b c13e f88c f83e f33e 513f
000002f0: d1d0 da3e 4cc9 563f 4d01 173f f3e6 343f
00000300: de56 933e 5f9a 0d3e 35f1 593f c2c9 1b3e
00000310: e657 513f 8cc3 2b3f 3aa5 613f 82d1 3f3f
00000320: f96f 3c3e bc19 9a3e 52bb d03e 79a3 fd3e
00000330: 0826 363f e965 5d3f 57ee 3e3f 74bf 3f3f
00000340: ff40 393f a525 e3bc cfa3 183f ea4a 603f
00000350: 38e2 683f 68b7 b33e 6ce1 513f 034b 4e3f
00000360: f6b9 8a3e e824 113f cd95 f03e bdf4 063c
00000370: d20d ec3e 1bb7 f13e c09d 583e 1dc7 8a3e
00000380: 0399 5e3d 7ed7 843e 0834 693e ddc2 6c3e
00000390: f390 143d 0c73 6b3f 5e97 f63e f1ba 7e3e
000003a0: 8b65 263f b76d 883f a72e 8c3f 797b 033f
000003b0: 4d6b e63e 7678 013f efca 443f 5d16 0f3f
000003c0: 101f 223f d2a1 8b3f 5a90 3c3f 58c8 7c3f
000003d0: 4ad5 f33e 1c1f 0a3f a11a f03e eeb3 fb3c
000003e0: 6c7c af3e cbcc 6e3f fbdd 323f e3dd 8d3f
000003f0: a1a2 283f bad1 7a3e 5f5b 463e af9c 473e
-0.014116724 0.90901643 0.03857613 0.6356535 0.5083009 0.6295666 0.92932457 -0.04111447
0.91025454 0.4879443 0.91076523 0.898273 1.0511185 0.12762645 1.045735 0.5896732
0.115057334 0.69547534 0.87949544 0.87176347 0.16403195 0.60573363 0.90583396 0.035138026
0.44743276 0.9879657 0.8158685 0.49057356 0.88290757 0.2937299 0.5492914 0.7854172
0.1996372 0.63028085 0.64499426 0.17732818 0.7352832 0.8192287 0.18598533 0.7990908
0.6553712 0.57764006 0.72112316 0.90836936 0.45453238 0.31076902 0.98602706 1.0508388
0.09495179 0.010288495 0.6707364 0.75512534 0.8179611 0.06919429 0.99721354 0.49901927
0.82704145 0.5288793 0.17997797 0.7657373 -0.0033886894 0.7952258 0.082354106 0.80659634
0.46750826 0.3292792 0.22039723 0.49407402 0.9232706 0.43228406 0.31052592 0.23367749
0.79362345 0.7179521 0.22096391 0.31956732 0.5487595 0.27142888 0.93028 0.13052844
0.65233773 0.50857764 0.0737077 0.77265996 0.47661293 0.7760232 0.5849514 0.2183621
0.18407768 0.8488876 0.4429984 0.4482372 0.94504344 0.85325056 0.42011273 0.11395523
0.5104251 0.9586244 0.089023456 0.98628885 0.136618 0.51466787 0.8857594 0.4628002
0.2533067 0.86312044 0.8895475 0.7029423 0.32498184 0.8073944 0.040295377 0.6910211
0.42227685 0.08820875 0.7012678 0.23508324 0.1212908 0.34886798 0.5379118 0.02626097
0.39587662 0.52638954 0.20636104 0.23852791 0.8505618 0.909891 0.034042325 0.11251337
0.38325983 0.6064213 0.5536171 0.68434393 0.0422459 0.21921869 0.6158718 0.7867126
0.22086014 0.27916476 0.12858745 0.3129591 0.47526833 0.38011447 0.54834694 0.87827134
0.7107817 0.19608189 0.5977685 0.8730565 0.52205825 0.96156186 0.10867851 0.33743984
0.33459866 0.1873515 0.60849696 0.5222565 0.29283997 0.7395973 0.8523292 0.12829182
0.81844825 0.3121698 0.19634476 0.5649122 0.7420216 0.9487533 0.49531278 0.2825585
0.89878756 0.8277262 0.3601117 0.11243551 0.6409748 0.38593802 0.24876435 0.7142559
0.45320603 0.56894976 0.86653125 0.63585556 0.80351776 0.6727806 0.5781111 0.6823402
-0.15201826 0.3778965 0.4854505 0.8173668 0.4273744 0.83900905 0.5898636 0.706649
0.28777212 0.13828419 0.8513368 0.15213683 0.8177475 0.67095256 0.8814274 0.7492906
0.18402089 0.3009776 0.40767914 0.49538782 0.7115178 0.8648363 0.7458243 0.7490151
0.723648 -0.027727911 0.5962495 0.8761431 0.9097018 0.35100865 0.8198459 0.8058321
0.27095002 0.5669694 0.4698929 0.008237061 0.46104294 0.4721001 0.21153927 0.27105036
0.054345142 0.25945657 0.22773755 0.2312121 0.036271047 0.9197242 0.4816236 0.24876
0.6499869 1.0658482 1.0951737 0.5136028 0.4500374 0.50574434 0.7687215 0.558935
0.6332865 1.0908759 0.73657763 0.987432 0.47623664 0.5395372 0.46895316 0.030725446
0.34274614 0.9328124 0.69869965 1.108334 0.6587315 0.24494067 0.19370793 0.19493364

sequential.convlstm1.convLSTMcell.W_cf f4 [10, 1, 32]
00000000: f714 133f cca1 b43e 2d64 463f 4d9e 933e
00000010: adf9 f33e 0b74 cb3e a805 7c3f 8c6b d23e
00000020: 5d0b b73e f6e7 c33e 5474 643f f4a2 d53e
00000030: d34e cb3e 3e5c f53d e676 303f 947d 793f
00000040: 4b40 343f 2ea2 3e3f a196 263e 324a a73f
00000050: 7a68 2f3f 4b8a 1f3f e7bb 393f 4063 8e3c
00000060: 970c 2a3f e1e9 573e 25e2 143f 7042 85bb
00000070: a704 153f 26b3 873e cead c53e 6b5e 733e
00000080: 3df7 663f e43b 0e3f 301a 873f 5018 3f3f
00000090: d2bc 293e 00f1 253d 9baf 3e3f 5c00 813e
000000a0: 1835 5f3f e1c5 293f 0a2f 2d3f 1a45 083f
000000b0: 1dbd 233f e709 343f 0f89 543f f5a8 fa3e
000000c0: dfd9 c93e d19e f03e b480 4b3f 0f1a 1f3e
000000d0: 3a67 523e 4cb8 333f 01f9 ee3e 1e6c 5b3f
000000e0: 20ee 843f 0fb7 463f 34f8 553f 456f 183f
000000f0: 0775 003f 321a 463e 085d 2a3f ba4b ed3e
00000100: e2f4 543f 5a44 033f 5cb4 513f 7d62 053f
00000110: a807 033f 7229 e63e 9699 3a3e 0ed4 393f
00000120: f1e1 cc3d b64a 193f 31dc 0a3f af60 0e3e
00000130: 9aa8 553f 41c2 0e3f 6f46 323f 8369 813e
00000140: 6428 b43e 2593 aa3e 3e9b 8e3e a4f6 523f
00000150: 7c01 243f a545 4c3f 842e 123f 18ab 033f
00000160: 7be5 293f 7fb6 91bd 028d aa3e 2b58 153f
00000170: e122 833f 9169 543f 32ec 1b3f 4bb4 5d3f
00000180: 5307 763f 88e6 583f eabb a93e cd15 413f
00000190: 1007 2d3f df71 d83e 4935 b03b 6e26 3a3e
000001a0: 74d5 313f c40c 523f d737 543e 6fe6 e93d
000001b0: 335e f23d d53d ba3d 7679 453f 98e1 033f
000001c0: b691 d23e 44c6 173e df78 6f3e 5038 393d
000001d0: e710 873e e7ed 1a3f ca34 2bbc 35af 513e
000001e0: 23a9 943e f8fb 9f3e 6fab 433f 281a 033f
000001f0: 499d 603e af70 373f 748a 6e3f d73e 0f3f
00000200: 47e2 163f eaca e23b 04e6 c63e 7b17 1e3e
00000210: 7982 c93e 5ec8 533d bc33 833f 37ff ee3e
00000220: 56ae 363e 4d99 823f 3123 ac3e 4beb ac3d
00000230: 2008 dd3d 8c72 923e 13fe cb3d 925d 1c3f
00000240: de91 503d 273c c53e 749f e43e b9de 583e
00000250: 6c88 6d3f c6cd 803f 8a5e 0f3f afa8 8b3e
00000260: adb2 803f 1627 f73d 8bfd a33e d4ab 463f
00000270: f004 6c3f 065e 4a3e 0b8c d63e 9af8 123f
00000280: 708a c03b dab2 8a3f 1d78 353f 59a8 2d3f
00000290: 89ee 923e 845e 7a3e 561e 6e3f e90a ea3e
000002a0: 44ed 093f 3ff5 453f c0c4 1e3e d2a2 ed3e
000002b0: e963 523e 7502 f73e bc77 093f 2420 9c3e
000002c0: e0f3 2f3f 7318 d03c b4a4 a33d e0b2 cc3e
000002d0: d762 df3e 5f3e 5f3e 2d71 063e 9c21 623f
000002e0: bbfc 953e 7f20 393e 5f7c 023f f6b1 b43d
000002f0: 686d 0e3f 6998 ea3e 0f1a ce3e 733f 9e3f
00000300: a9b1 623f f7da 123f b884 3d3d 408e 433f
00000310: 7e2c c13e b7be 7e3f 702d 583f 03e6 42bc
00000320: fc5f 3b3f a18f 6e3f 6ae0 3a3e 74a4 dd3e
00000330: 1a89 c03e 9518 3e3e 1230 893e b015 023e
00000340: da61 6fbc f7ff 9e3e abc1 1f3f d95a 673f
00000350: 8640 2e3e 4ed9 313f 9a87 6e3f 71c6 f63e
00000360: 4f37 b53e 4054 4e3f 3ab5 723e da0f 253f
00000370: f720 143f 518f 3e3f 10b8 0b3f a5df 213f
00000380: 5e5e 333e 951c 623d 9928 263f 7393 9f3e
00000390: 0c1c 603e 6ba7 923e 1ea3 c23e 9ace 013f
000003a0: 2bce 773f c298 403f 99c3 d23e 1680 853f
000003b0: 9e6e c53e c4ed 043f b7fb 943e cc6e 453f
000003c0: 65e5 8c3d 83eb 003f f3b7 8d3e 83fd 0c3f
000003d0: 5e75 0f3f 3969 e83d 49ac a13e 49eb 3d3f
000003e0: 42af 193f 8c19 e83e 8332 623f 9cf0 8b3f
000003f0: 7587 0f3f 64e8 ddba 066b 7b3f 8ae0 ef3e
0.57453865 0.3527969 0.77496606 0.2883171 0.47651425 0.3973697 0.9844613 0.41097677
0.35750857 0.3826291 0.8924 0.41725886 0.39708576 0.119804844 0.68931425 0.9745724
0.70410603 0.74466217 0.16268398 1.3069518 0.68518794 0.62320393 0.7255234 0.01738131
0.6642546 0.21085311 0.5815757 -0.004066758 0.58210224 0.26503867 0.38609165 0.23766486
0.90221006 0.55560136 1.0554867 0.7464647 0.16575935 0.04051304 0.744867 0.25195587
0.8719039 0.66317564 0.676499 0.5323044 0.6396044 0.7032761 0.83021635 0.4895703
0.39424035 0.46996167 0.7949326 0.15537284 0.2054719 0.7020309 0.4667435 0.8571185
1.038517 0.77623075 0.8358185 0.59544784 0.5017857 0.1934593 0.66548204 0.46346837
0.8318616 0.5127617 0.8191583 0.52103406 0.5118356 0.44953495 0.18222651 0.72589195
0.100040324 0.59879625 0.54242235 0.1390407 0.8346039 0.5576516 0.69638723 0.25275812
0.35187066 0.33315387 0.27852815 0.82407594 0.64064765 0.7979377 0.5710223 0.51432943
0.66365784 -0.071148865 0.33310705 0.5833766 1.0245019 0.8297358 0.6090728 0.8660323
0.96104926 0.8472676 0.3315118 0.7542389 0.675889 0.42274377 0.005377446 0.18178722
0.6946633 0.8205073 0.20724426 0.11420905 0.11834373 0.09093825 0.7713846 0.51516104
0.41126794 0.14821726 0.23385952 0.04521972 0.26380083 0.6051926 -0.010449598 0.20476992
0.2903529 0.31246924 0.7643346 0.51211786 0.21935 0.71656317 0.9318001 0.5595526
0.5893902 0.006921162 0.38847363 0.15438645 0.39357355 0.051704757 1.0250163 0.46679088
0.17839941 1.0203034 0.336206 0.08443316 0.10792565 0.28603017 0.0996057 0.61080277
0.05092036 0.38522455 0.44652903 0.21178712 0.9278629 1.0062797 0.5600363 0.27277133
1.0054528 0.12068002 0.32029375 0.7760594 0.92195034 0.1976243 0.4190372 0.57410586
0.005875878 1.0835831 0.70886403 0.67835003 0.28697613 0.24450117 0.9301504 0.4571145
0.53877664 0.7732734 0.15504742 0.46413285 0.20545925 0.48244062 0.53698325 0.3049327
0.687315 0.025402283 0.07990399 0.3998022 0.43630096 0.21801136 0.1312911 0.88332534
0.2929438 0.18078803 0.50971025 0.08823006 0.5563569 0.45819405 0.40254256 1.2363113
0.8855234 0.57365364 0.04626915 0.7638893 0.37729257 0.9950976 0.8444433 -0.011895659
0.73193336 0.9318791 0.1824967 0.4328953 0.376046 0.18564065 0.26794487 0.12703586
-0.014610732 0.3105466 0.6240489 0.90373 0.17016801 0.69472206 0.9317566 0.48198274
0.3539376 0.80597305 0.23701945 0.6447731 0.578628 0.74437433 0.5457773 0.6323188
0.17516467 0.05520304 0.649057 0.31167182 0.21885699 0.28643355 0.38015074 0.50705874
0.9679896 0.7523309 0.41164854 1.0429714 0.38560957 0.519253 0.29098293 0.7712219
0.06879691 0.5035936 0.27679405 0.5507433 0.56038463 0.11348195 0.31576756 0.7418714
0.6003305 0.4533199 0.88358325 1.0932803 0.56066066 -0.001693022 0.9821018 0.46850997

sequential.convlstm1.convLSTMcell.conv.weight f4 [40, 11, 1, 3]
00000000: 5dac a6bd 8f80 3d3e c151 21be cb04 073e
00000010: f9d3 31be 6a5f 873d decd 64bd 9f3b e43d
00000020: 3790 5fbd 5e82 c8bb d3e3 93bd 8abc aabd
00000030: c29a 653c e379 a7bd 38e7 f33c aa7b 3b3e
00000040: c741 293e ae50 70bc adc6 8d3d 7c87 acbc
00000050: caf3 41bc 3c92 dabd 4f6a 1abe 57e7 e3bc
00000060: 49ae 79bc cf6e 96bd 55c9 253d 4e95 4cbe
00000070: ebab 563d 0be0 e43d eb94 2abe 4433 933c
00000080: 8010 203c d8f0 9ebd 764b 33bc 6e61 a33d
00000090: 94fa d8bc d1b4 813e 504e 643d f685 3fbe
000000a0: 7926 f03b 5ca4 0abe af07 40be e751 c8bd
000000b0: 8f57 b23d bb7f 2e3e 11b7 543e 70ad b93d
000000c0: 87b3 003e fdce bf3d b2ca 683d 6025 76be
000000d0: 455d 53be 0209 e7bd 6e4c d9bc ed1b adbd
000000e0: a467 903e f251 183e 4675 5a3d c747 783e
000000f0: 1e66 b63d 6431 a2bc 7219 183e 3df4 4b3d
00000100: 4212 9b3d b386 823e 7972 643e 0eeb 27bc
00000110: 3f1e aebd 5086 87bd d09c c63d afb7 bcbd
00000120: 7683 09be e913 f63d 4c60 813a 3f10 523e
00000130: eca5 e53a d460 7cbd fedc 1f3e e31a b9bb
00000140: bc8c b5bd 7eab 92bd d1ae 543c 468a 39be
00000150: d8f5 e5bd 9f4f 8a3b 4944 613d cb59 3cbd
00000160: eb2c 863b 7ef7 4cbe 5367 7d3c 6734 433d
00000170: 9f9d 14be 5ca6 c93d 40b4 2cbe 4b55 f9bd
00000180: 2b13 beba 9352 46be a053 47be 5722 8dbd
00000190: 9210 1c3e d7be 08bd fdc1 b9bd 3ea0 c43d
000001a0: 6edf b1bd 31ad 9ebd bc21 dc3d 654e 7dbc
000001b0: 51ca 293d 2909 1e3d 048e fc3d ef1f cc3c
000001c0: 7014 afbd d882 8b3d d632 eabc a790 54bd
000001d0: 7ff6 8d3d bf5b ce3a b739 28bc ec0e cc3d
000001e0: 0d9b 373e a65a 0d3e d523 0dbd 5e5a 3ebc
000001f0: b1e6 fe3d cb13 d6bc de28 c9bd cf27 fbbd
00000200: 292a 823d 9a41 543e 2724 563e 394a a73d
00000210: e11c 5abd 7918 223e 273e 273e 2f87 cfbd
00000220: 5c31 10be 8450 2bbe 685e 1fbe db99 c4bc
00000230: 942f 29bd 6779 643d 1248 473e e5f0 3f3e
00000240: a36a 65bd 456b 00be 0f7a 16be 87c1 e43d
00000250: 41c3 e3bd 8a6e 7d3c fa27 12be 626d eabd
00000260: 044c 1e3e 0477 bebc 7fb1 5fbe 24c0 dfbd
00000270: a548 d73d 89c5 cc3c e082 3bbd 05d0 ea3d
00000280: 2fb4 003b e313 52be 8051 e53d eb0f 9dbd
00000290: 14ad 903d 5e36 a2bd 2e21 6f3d 7ef3 9f3d
000002a0: 4dac 47bb bb7c 32be ec18 3c3d f8f5 353e
000002b0: 2693 563d 2b8c f9bb 6c2d 56be 964b a2bd
000002c0: 17d4 c83d a023 dbbd a90a 00be 1f1f b4bc
000002d0: 4825 febc 4999 1ebd b134 ac3b 744a 7c3e
000002e0: f3da e03d 8a7b 953d 12cb 7abc 9c05 33be
000002f0: ed08 02be 69ab 753d 24ee d63b c1e4 02be
00000300: 09e8 2dbc 9bd6 0fbe e005 6e3e 3ae5 a03d
00000310: e715 77bd 2300 413d 453d e93d 755f 06bd
00000320: f186 f13d 460b bf3d 7a70 193e fad0 4bbe
00000330: 2aed 0c3d f57b a4bd dabd 0e3e f619 91bd
00000340: 30e5 943d 829f df3c 6d25 1b3e e73f 28be
00000350: 389f 34be d6d8 2d3d 7ef6 1e3e 9e30 bfbd
00000360: cca5 adbd 73cb f53d b339 633e a448 99bd
00000370: 907d 57bd f6a6 e0bd 13ea 0abe d8b4 0cbc
00000380: 286e e5bd 581d 0a3e 8cba 033e eadb 833c
00000390: 8cc5 51bd 3348 b2bd b653 7abd abd4 523e
000003a0: 1b1d a53d f293 0f3e 37d0 c2bd 2a28 d4bd
000003b0: 4dc6 353d e163 9abd f4e0 c9bd 06a1 d93d
000003c0: 408b d83b cb13 96bd f382 e3bd 7c6a 4a3e
000003d0: 2f0f 003e e9f0 0ebd a69b cfbd 55fb 24bd
000003e0: 7fb0 9d3d e7e7 ddbd ce6f c2bd 669f fa3c
000003f0: 36b4 e5bd 8337 55bd 6630 dbbd 960c 1d3e
-0.081383444 0.18506072 -0.15753843 0.13185422 -0.17366017 0.06609996 -0.055860393 0.11144184
-0.054580893 -0.0061190566 -0.072211884 -0.08336742 0.014013948 -0.08177545 0.02977334 0.18308893
0.16528998 -0.014667673 0.0692266 -0.021060698 -0.011837909 -0.10672423 -0.15079616 -0.027820272
-0.015239307 -0.07345354 0.04047521 -0.1997883 0.052410048 0.11175545 -0.1665837 0.017968781
0.009769559 -0.07760781 -0.010943284 0.079775676 -0.026486672 0.25333264 0.055738747 -0.18703446
0.007328805 -0.1353926 -0.18752931 -0.09781247 0.08708107 0.17040913 0.2077296 0.09066284
0.12568484 0.09365652 0.05683393 -0.24037695 -0.20641048 -0.11281015 -0.026525702 -0.08452592
0.28204072 0.1487501 0.053334497 0.24246131 0.08906196 -0.019798942 0.14853457 0.04979347
0.07571842 0.25493392 0.22309293 -0.0102489125 -0.08501863 -0.06617415 0.09697878 -0.09214722
-0.13429055 0.12015516 0.0009870618 0.2051401 0.0017520762 -0.06161578 0.15611646 -0.005648957
-0.088647336 -0.07161616 0.012981133 -0.18119153 -0.112285316 0.0042209174 0.054996762 -0.04598407
0.00409471 -0.20016286 0.015466529 0.047657397 -0.14513253 0.09846184 -0.16865635 -0.121744715
-0.0014501562 -0.19367437 -0.19465494 -0.068913154 0.15240696 -0.033385124 -0.090702035 0.09600876
-0.08685194 -0.077478774 0.10748622 -0.015460585 0.04145271 0.038582955 0.12331775 0.02491757
-0.0854882 0.06812066 -0.028588694 -0.051895764 0.06931781 0.0015743895 -0.010267667 0.099637836
0.17930241 0.13804111 -0.034458 -0.011618225 0.12446345 -0.026132485 -0.09822248 -0.12263452
0.06355698 0.2072815 0.20912229 0.08168454 -0.053250197 0.15829648 0.16332303 -0.10133206
-0.14081329 -0.16729933 -0.15563357 -0.023999145 -0.04130514 0.05577984 0.19461086 0.18744238
-0.0560099 -0.1254092 -0.14694999 0.11169725 -0.11121226 0.015468249 -0.14273062 -0.11446644
0.15458685 -0.02325011 -0.21845053 -0.1092532 0.10511903 0.024996536 -0.04577911 0.11465458
0.0019638648 -0.20515399 0.111971855 -0.07669052 0.07064262 -0.07920526 0.058381252 0.07810114
-0.003046769 -0.17430393 0.045922205 0.17769611 0.052386425 -0.0076155863 -0.20915765 -0.07924573
0.09806078 -0.10700154 -0.12504067 -0.021987496 -0.031023636 -0.038720403 0.0052553047 0.24637777
0.10979261 0.07298954 -0.015307205 -0.17482609 -0.12698717 0.059977923 0.0065591503 -0.12782575
-0.0106144035 -0.14046709 0.23244429 0.078562215 -0.060323622 0.04711927 0.11388639 -0.03280588
0.11793316 0.09328322 0.14984313 -0.19903937 0.034405865 -0.080314554 0.1393961 -0.0708503
0.072702765 0.027297739 0.15150996 -0.16430627 -0.17638862 0.04244312 0.15523717 -0.09335445
-0.08478889 0.120016955 0.2218998 -0.07484558 -0.05260998 -0.10969345 -0.13565855 -0.008588038
-0.11202651 0.13487756 0.1286413 0.016096074 -0.051213786 -0.08705177 -0.06111499 0.20588939
0.08062192 0.1402128 -0.0951237 -0.10359223 0.044378567 -0.07538582 -0.098573595 0.10626416
0.006608397 -0.07327994 -0.11108961 0.19767183 0.12505792 -0.03489772 -0.101371095 -0.04027875
0.076996796 -0.108352475 -0.09493981 0.030593585 -0.11216013 -0.052054893 -0.10702591 0.15336832

sequential.convlstm1.convLSTMcell.conv.bias f4 [40]
00000000: a03d 0b3e 6aa4 45bd 5d1a 843d 78e7 19bd
00000010: c42f d5bd 937c 3b3e dafa 3abd ba26 b0bd
00000020: 04db bbbd c366 993d 4e7d cb3d 2a7c 9a3d
00000030: d215 033e 631c 0c3e 88c9 59be 69f8 c7bc
00000040: 3c77 5dbe 2d1c e0bc 56e0 bbbb dba5 febd
00000050: 0410 e3bd bf57 063d dd8e 90bd 69e9 86bd
00000060: a0d8 2d3d 25cc 77bd d6d3 f23c 48c2 113d
00000070: 011e a2bd c4db 5ebe aa42 dbbd 9138 88be
00000080: 2aeb 5a3d 9873 f83d 7a23 a63c 9a61 c73d
00000090: 4be3 e23d d709 8abd ef21 8bbc 2850 a6bb
0.13597727 -0.0482525 0.06450341 -0.03757426 -0.10409501 0.1830924 -0.045649387 -0.086011365
-0.09172633 0.07490303 0.09936009 0.07543214 0.12801293 0.13682704 -0.21268284 -0.024410443
-0.21627516 -0.027357185 -0.00573353 -0.12433978 -0.11087039 0.032798525 -0.07058499 -0.06587488
0.042442918 -0.06049742 0.029642027 0.03558567 -0.07915879 -0.21763521 -0.107060745 -0.26605657
0.053446926 0.12131423 0.020280588 0.09735413 0.11078509 -0.06740158 -0.016983954 -0.0050754733

sequential.batchnorm1.weight f4 [10]
00000000: 7a36 703f 87a3 723f 0650 723f 847c 8a3f
00000010: f8fb 603f f63c 823f c2f2 6f3f a2bc 753f
00000020: b889 863f 12ae 883f
0.93833125 0.9478077 0.94653356 1.0819249 0.87884474 1.0174854 0.93729794 0.95990956
1.0510778 1.0678122

sequential.batchnorm1.bias f4 [10]
00000000: 374b 6ebd 9ef4 cc3d 4eaf c1bd 71b8 a1bb
00000010: fd61 813d 4e87 57bd 4dab c0bd e597 89bd
00000020: c0eb 803c 1ce0 ddbd
-0.0581772 0.100075945 -0.09457265 -0.004935317 0.06317518 -0.05261927 -0.09407673 -0.06718425
0.015737414 -0.10833761

sequential.batchnorm1.running_mean f4 [10]
00000000: 6aef dcbd 7a9f eebc 8e0f 1c3e 5f94 d6bd
00000010: 37cc 923d b5be d33d eba6 3b3d e900 2b3e
00000020: 6456 e5bd a241 94bd
-0.10787852 -0.029128779 0.15240309 -0.10477518 0.07167857 0.10339109 0.045813482 0.16699566
-0.11198118 -0.07239081

sequential.batchnorm1.running_var f4 [10]
00000000: b007 733b a101 873a 90ec 723c 29dd 3a3b
00000010: dcfd cb3a 3ba6 0b3c 7b2f 383b 1855 693c
00000020: 7e00 573b 401b 593a
0.003708344 0.0010300168 0.014826909 0.002851317 0.0015563327 0.008523519 0.0028104472 0.014241479
0.003280669 0.00082819536

sequential.convlstm2.convLSTMcell.W_ci f4 [10, 1, 32]
00000000: 3cd8 aa3e 560e cf3e 1c6d af3e ef96 973c
00000010: f055 6a3e 5c23 aa3d b917 be3e ff97 823f
00000020: 1105 f73e 29da 503e 070e cb3e 5aec 2a3f
00000030: 54b8 6c3f 48d4 8a3e 5578 563c d024 fe3e
00000040: 3402 413f a573 413e 7454 bf3e 3e0f 8e3e
00000050: bb6b 4c3d 7e2d 53bd e020 ad3e 9e7c d03e
00000060: 1d63 283f bc2d 633f b49f 813e f0b0 d43e
00000070: cd78 853f df4e 323e fa28 573f a5f3 863f
00000080: 4cff 283f c3c1 503f defd 523e 9d4d c23e
00000090: 5ecc 283f 4720 a13e da3e 323f e13b 243f
000000a0: 0bc3 f73d 0a1a 293f 81bc 3e3f 81ee c53e
000000b0: f833 323e 0454 a33d 11b5 113f 4dac e73e
000000c0: 59d0 203f c934 043f 8945 3a3f 3094 003f
000000d0: 7c4c d23e 9e09 763f 4bcb 5a3f 83c9 f53e
000000e0: 72ad 523f 04fc 8f3d 68db 733f 1bd0 f03b
000000f0: cf38 163f fcfd b83e dfad 593f 53ce 6f3e
00000100: ee31 b63e 0b16 823e c189 3a3f 2866 a53e
00000110: c077 013e c8e9 223f b368 233f cc00 ad3e
00000120: d610 9b3d 8f51 383f 952a d03c bdea 393e
00000130: dfbb 023f b17d 183f da05 533f 689e 583e
00000140: 1953 593f df58 293f 23e8 173f 8784 373e
00000150: 975b 983e 5140 d03e 4359 4d3f 3221 8e3e
00000160: ae25 413e 4680 47bd e0d2 6c3f 7054 4d3e
00000170: 190d 3a3f 27f3 d93e 6424 0a3e 0e31 453f
00000180: d234 903e f635 d53e 94ae 693f 4f27 9e3e
00000190: 9aaa 6e3f a9b7 9e3e 2f54 033f d4e7 993e
000001a0: 3a21 473f 1e3b ce3e 49f1 613e 0ebc 5a3e
000001b0: 2f0f 763f 6033 503f 2fc1 2b3f 6559 103f
000001c0: 7553 663f 0c00 893e 4675 983e a97f d23e
000001d0: 0fef e83e d029 633f 7bf1 fd3d dec2 5d3e
000001e0: 75ae 843e 9193 6b3f d097 2a3e e8a3 633f
000001f0: 46a2 ac3d cb11 9b3e 0684 753e c384 f13d
00000200: 35c7 863e e071 b03e c9e5 5f3e 982a 9b3f
00000210: 8dde 6b3e 5ae4 983e e007 2f3e c97c 183f
00000220: 4efd 293e 1a28 b43e d626 5ebd ff3f 243f
00000230: 19a3 a43e 61c7 123f 48db 8a3d 0c96 383f
00000240: 0514 cf3e ac0e 293f cd8f 363e c386 033f
00000250: 5dbb 0f3e 6869 a53e 4791 e63e 7bdd 123e
00000260: 8ca5 4d3f 6a24 3f3f b994 4a3f 4143 373f
00000270: cd27 3c3f ee55 bc3e d4c2 0d3e 0383 5b3f
00000280: cea0 793f a12b e53e 3b7d 553f c6e2 6a3f
00000290: 691c 273f bef3 003f cb59 dc3d 57a6 683e
000002a0: 0ec0 6e3e 7091 f13e 8248 123f aa4b 5e3f
000002b0: dfbb 273e 6bd7 2c3f 5039 da3e 90bb 693f
000002c0: 2fd0 103f ba65 1a3f 6fc1 a83e 0dae b23d
000002d0: b3eb 34bd b0e6 8dbd 5b18 df3e d3bd 463e
000002e0: f675 ad3d 4bf9 fe3e 1657 503f 7d65 5c3e
000002f0: d357 c03e fc64 153e 436e 113f 15bd 3a3f
00000300: 2d69 1b3e f541 1a3f a64c 683f 2778 103f
00000310: 76d8 613f 541d 1b3d eb67 fc3e 0177 f33e
00000320: 26a2 ff3e e2a6 9d3e efec 413f 8032 903d
00000330: c90e 6e3e d4e2 e73e a6a5 043f d50a 863d
00000340: c0d8 833f c316 403f cd4b 473e 3f17 ff3e
00000350: 9c78 853f 86c1 f93e 15eb 9f3c 4287 3a3f
00000360: f0e2 1cbc cb1e 853e 6ebf 2c3f 6e0b 413f
00000370: de05 953e 39a7 713f 5bc0 1b3d bc37 353f
00000380: ee97 803f 09c7 613f 5608 b33e dd85 733f
00000390: 71d1 9d3e f402 843e 8210 713f 9e56 a03d
000003a0: 8c84 443f 1b84 c03e e158 543e 2464 6c3e
000003b0: b46b 183f 9062 6abe 7b7c a53c 2838 5d3f
000003c0: 7e96 c63e 14d7 293f edfb e43e a442 113f
000003d0: fd60 7a3f 8462 f2bb eb95 123e 4a59 6e3f
000003e0: 23d2 4c3d 662a c63e 5bb9 8b3f 2e23 e93e
000003f0: 4a3f 613d 4b88 d23d 99fc 483f 05c4 233e
0.333681 0.40440625 0.3426293 0.018504588 0.22884345 0.083075255 0.37127474 1.0202636
0.48246053 0.20395721 0.3965914 0.66766894 0.9246876 0.27115083 0.013090213 0.4963746
0.75393987 0.18891771 0.3736912 0.27746004 0.049907427 -0.051557057 0.33814144 0.40720075
0.65776235 0.8874166 0.25317156 0.41541243 1.042749 0.174129 0.840469 1.0543104
0.6601455 0.81545657 0.20604655 0.3794984 0.6593684 0.31469938 0.69627154 0.6415387
0.12097748 0.6605536 0.74506384 0.38658527 0.17402637 0.07975009 0.5691691 0.45248643
0.62817913 0.51643044 0.7276235 0.50226116 0.41073978 0.96108425 0.8546645 0.48005304
0.82295907 0.0703049 0.9525666 0.007349027 0.58680433 0.36131275 0.8503093 0.2341855
0.35584968 0.25407442 0.72866446 0.32304502 0.12643337 0.6363797 0.63831633 0.3378967
0.075715706 0.7199945 0.02541093 0.18155952 0.5106792 0.5956679 0.82430804 0.21154177
0.8489242 0.6615123 0.5933859 0.17921649 0.29757378 0.4067407 0.8021433 0.277597
0.1886203 -0.048706315 0.9250927 0.20051742 0.72676235 0.42568323 0.13490444 0.77027977
0.281653 0.4164273 0.9128201 0.30889365 0.9322907 0.30999497 0.5130033 0.30059683
0.77785075 0.40279478 0.22064699 0.213608 0.9611692 0.8132839 0.6709165 0.56386405
0.89971095 0.26757848 0.29776973 0.41113022 0.45494887 0.88735676 0.12399574 0.21656367
0.2591435 0.92022043 0.16659474 0.88921976 0.08429389 0.30287012 0.23976144 0.117929004
0.26323858 0.3446188 0.21865 1.2122374 0.23034115 0.29861718 0.17092848 0.5956541
0.16600534 0.35186845 -0.054236256 0.6416015 0.32155684 0.5733548 0.06780106 0.72103953
0.4044496 0.6603801 0.17828293 0.51377505 0.14036317 0.3230698 0.45032713 0.143423
0.8033073 0.7466494 0.7913318 0.71586996 0.7349823 0.3678431 0.13843852 0.85746783
0.97510993 0.4475985 0.8339421 0.9175228 0.65277725 0.5037192 0.10759314 0.22719704
0.2331545 0.47181273 0.5714189 0.86834204 0.16380261 0.675162 0.4262185 0.9130182
0.5656766 0.6031147 0.32960078 0.08724604 -0.044170093 -0.06928766 0.4357327 0.1940835
0.08469765 0.4979957 0.8138288 0.2152309 0.37567005 0.14589304 0.5680887 0.72944766
0.1517684 0.6025689 0.90741956 0.5643334 0.8822092 0.037869766 0.49298033 0.4755173
0.49928397 0.30791384 0.75752157 0.07040882 0.23247828 0.45290244 0.5181526 0.06545035
1.0300522 0.7503473 0.1946251 0.49822423 1.0427432 0.4878046 0.019521276 0.7286264
-0.0095755905 0.26000056 0.674796 0.75408065 0.2910604 0.94395787 0.03802524 0.7078817
1.0046365 0.8819433 0.34967297 0.95126134 0.30823854 0.25783503 0.94165814 0.07829021
0.7676475 0.37600788 0.2073703 0.23085076 0.5953934 -0.22889161 0.020200958 0.8641381
0.3878669 0.6634381 0.44723454 0.5674231 0.9780424 -0.007396998 0.14315002 0.93104994
0.05000509 0.38704222 1.0915941 0.45534652 0.054991998 0.10279902 0.78510433 0.15992744

sequential.convlstm2.convLSTMcell.W_co f4 [10, 1, 32]
00000000: 4962 693f 02a6 783f 6bd3 e73e 9013 633f
00000010: 7a87 6d3e b84a 093f 84d4 413f 258b 803f
00000020: dd91 4e3f 970d 903e 3424 2fbe a8fe 353f
00000030: 1445 ac3e 30a8 403e e1ba e43d 2bb3 bf3e
00000040: bbdf c83e 0b28 173f 620c 703e e839 c83e
00000050: 4f2d bc3e c245 603f ccfb 3a3f dddf 833e
00000060: 835d 413e 4b1e 2d3f 666b 5b3f 50e1 913e
00000070: 76f8 773e 035a 683e 90df 2b3f ff37 d83e
00000080: cd3a 3f3f d1c7 383f b584 413f e2f8 273f
00000090: a726 d63e ea38 2a3f c223 643f 7a27 a73e
000000a0: ab61 6c3e 3fea 733f 8324 933e c68f c03e
000000b0: 8a7b 2e3f d21b 7a3e aca3 443f cb70 903e
000000c0: b618 e43e cf98 643f 98df 213f 2ea4 a33d
000000d0: aa2b 303f 1fbe fc3e cf5e 523d 199c 963e
000000e0: be87 ee3e e86a 363f ef1c 803f bebd cb3e
000000f0: ad93 833f 3ac2 f73d 7020 433f 806a 573f
00000100: d76d 523f 78e1 b83d 4eae e83e 17b6 603f
00000110: 3fab 2f3f e49b 7c3f 3905 9a3e e481 383f
00000120: f6d7 1f3f 095e f53d beed b93e e0bd 703f
00000130: 6839 4c3f 0cf9 1e3f 4265 8c3e 173c 2e3f
00000140: 725e e73e c6d8 373f b053 303f cc4d 333f
00000150: 0d15 01bc 9d55 a83e 003e 3a3f ff22 ea3e
00000160: 04f1 7b3f b9f6 313f 11d4 1a3f d7d3 f33e
00000170: 6ce4 213f c700 3f3f 5040 473f d77a bc3e
00000180: 6073 e0bc 07d1 a43e 3514 5d3f d4fc 573e
00000190: 0f02 d33e a0fa eb3e 4591 d33d dde9 703f
000001a0: bb00 753f 18be 2a3f e6e2 de3e b7d6 0a3e
000001b0: 5bf3 803f 8af8 1d3f 89df 84bd 9e5b 833f
000001c0: 61d2 003f b277 043f fdbb e53e 2c63 723f
000001d0: 8457 3c3f f2f1 383f 7f63 9d3e 0162 713f
000001e0: 77b8 093f 11d9 463e da91 813e c12d 363f
000001f0: 6dad 803e 89ff 1b3f 0af9 2f3f 7485 353f
00000200: e1c7 e03e 7f26 b43e 049a e13e bece 7e3e
00000210: c268 1d3f 190b ea3d 6df4 c93e a587 143e
00000220: df9b c03e feca 8d3b 04e6 263f 780f 593f
00000230: e563 503f 3895 5a3e bfca cd3e 142f 223f
00000240: 71e6 c43e 5f1d 9f3e 5246 db3c 6fad eb3e
00000250: e4b7 413f cb31 623f f388 d13d 290b 653e
00000260: 5437 a33d d09b 993e 2f60 8d3e 505b d83e
00000270: 7d11 093f 677d 003f c851 303f c1ee 363f
00000280: 7a56 593e aa41 ea3e 6114 243f 9779 a23e
00000290: 3854 883f dbaf 53bd ecdc 0a3f a07f cd3e
000002a0: b917 583f de9e 983e 7519 093f c131 543f
000002b0: 6f93 463f 6adb 573e aca9 ec3d 102f 863f
000002c0: 7034 da3e fee9 f43e 98b8 483f d3a1 ce3e
000002d0: 3931 093e 648f 273f 45fc 2d3f 9feb f93e
000002e0: dcea 013f 29a5 4b3d a4d2 153f be6b 883e
000002f0: 9080 c13e 5257 9a3d 4fc0 273e f586 223f
00000300: 6a1d 2c3f 9d81 643f b992 6c3f 500d 663f
00000310: 2dfa 153f 6ac4 823c 95f8 0e3f a40f 003f
00000320: 0de2 7e3e fb26 273f 86e2 303f 3627 ec3d
00000330: fed4 753e 7791 163f ec97 403f f870 733f
00000340: 0e10 893e b4ed 1b3f 4265 6c3f dd16 203f
00000350: aff0 813f 6f78 dc3e 801c de3e dd9d b43e
00000360: f419 803e 26a8 583f 32b5 883f 5e27 1d3f
00000370: 947c 113e fbdc 133f cbce 723f e064 e93e
00000380: 5179 6c3d f33a 013e 31b6 013f 1e5b e33e
00000390: edb0 293d 0275 643e b547 303f e44e 183f
000003a0: a2ba 0f3f 721c 093f 4cda 4c3f 5f9c d9bd
000003b0: ea30 563f 270a 203f e14b c93d daef c33e
000003c0: 2f16 313f 2d17 64bd 0cf8 d73e 03c7 2e3f
000003d0: c227 313e 2bd5 4b3e dc33 2e3e 1289 543f
000003e0: 2f33 613f a633 e23e 80fb 503f a129 d83e
000003f0: cef0 443f edf0 f6bc f324 453f fa44 0e3f
0.91165596 0.9712831 0.45278487 0.88701725 0.23196211 0.53629637 0.757149 1.0042464
0.8069132 0.28135368 -0.17103654 0.710917 0.33646452 0.18814158 0.11168457 0.37441382
0.39233193 0.59045476 0.23442224 0.3910668 0.36753318 0.8760644 0.7304046 0.25756732
0.18883328 0.6762435 0.8571075 0.28492212 0.24215874 0.22690587 0.67138004 0.42230222
0.746991 0.72179896 0.7559312 0.6561414 0.41826364 0.66493094 0.8911706 0.32647306
0.23084132 0.95279306 0.28738794 0.3760969 0.68157256 0.24424675 0.76812243 0.28211054
0.44550103 0.8929567 0.632318 0.07990299 0.68816626 0.493638 0.051359948 0.29415968
0.46587938 0.71256876 1.000883 0.397932 1.0279442 0.12097593 0.7622137 0.8414688
0.8219885 0.0902738 0.45445484 0.8777785 0.68620676 0.9867537 0.3008211 0.720732
0.62438905 0.119808264 0.36314195 0.94039726 0.79775095 0.62098765 0.27421004 0.6806044
0.45189244 0.71815145 0.68877697 0.70040584 -0.007878554 0.32877818 0.72750854 0.45729825
0.98414636 0.69517094 0.6047984 0.47622558 0.6323917 0.7461056 0.7783251 0.3681247
-0.027398765 0.32190725 0.8635896 0.2109254 0.41212508 0.4608965 0.10330442 0.9410685
0.9570424 0.6669631 0.43532485 0.1355847 1.0074266 0.61707366 -0.064879484 1.0262334
0.5032101 0.5174514 0.44869986 0.94682574 0.7357104 0.7224418 0.30739972 0.9429017
0.53797096 0.19418742 0.25306588 0.71163565 0.25132313 0.6093679 0.6873938 0.7090676
0.43902496 0.3518562 0.44062817 0.24883553 0.6148797 0.11427898 0.39444295 0.1450487
0.3761892 0.004327177 0.65194726 0.8478923 0.81402427 0.21345985 0.40193745 0.63353086
0.38457063 0.31077096 0.02676693 0.46030757 0.7567122 0.8835723 0.10231199 0.22367539
0.079695374 0.30001688 0.27612445 0.42257166 0.5354231 0.5019135 0.6887479 0.7145806
0.21224394 0.45753223 0.64093596 0.3173339 1.0650702 -0.05168138 0.5424335 0.40136433
0.844112 0.29808706 0.5355447 0.8288842 0.77568716 0.21079794 0.115558 1.0483112
0.42618132 0.47834772 0.7840667 0.40357837 0.13397683 0.6545317 0.6796306 0.48812577
0.5074899 0.049718056 0.5852454 0.266447 0.37793398 0.07536186 0.16381954 0.6348718
0.6723238 0.89260274 0.9241138 0.89864063 0.5858486 0.015962798 0.55848056 0.50023866
0.24890919 0.65293854 0.6909565 0.115309164 0.24007031 0.5881571 0.75231814 0.9509425
0.2677006 0.6090958 0.9234201 0.62534887 1.0151576 0.43060634 0.4338112 0.3527669
0.250198 0.84631574 1.0680296 0.61388195 0.14207679 0.57759064 0.9484679 0.45584774
0.057732884 0.12620144 0.5066863 0.44405454 0.041428495 0.2231026 0.68859416 0.5949538
0.56144154 0.5355903 0.80020595 -0.106255285 0.83668387 0.6251549 0.09828926 0.3826893
0.69174474 -0.055686165 0.42181432 0.6827242 0.17300323 0.19905536 0.1701197 0.8302165
0.87968725 0.4418003 0.8163376 0.4221926 0.7692994 -0.03014418 0.77009505 0.55574

sequential.convlstm2.convLSTMcell.W_cf f4 [10, 1, 32]
00000000: ee2b f73e 2c28 c83e 9003 e03e df8d e73e
00000010: f5d0 5b3f b1fd c13e 3f50 593f dd0e 093f
00000020: 4103 7a3f 8b5b 5e3f 4bd5 2cbe 87b3 403c
00000030: fb67 633f 98cc 153f 6e58 103f 1658 893e
00000040: 6d45 ac3e e5e2 d93e 3c68 343e df53 a23e
00000050: e565 4d3f 8bf7 2c3f 513a 7b3f 9955 643f
00000060: 1626 e13d 06c0 b33d 2558 803f d526 ac3d
00000070: 40ff 813f 0472 f03e a795 083f beb4 153f
00000080: 9c04 243e 876b f73d 2d5f e23e 0c7d 103e
00000090: eca3 513f ac68 3e3d d62f 7b3f fa2e 8e3d
000000a0: 53a5 5e3f f426 043f 9d16 493f e0a6 6c3f
000000b0: fbc8 663f d368 503f 29b9 083f 21a1 4b3f
000000c0: 5e7b 173e 319a 433f 183f 4d3f 5fd7 823e
000000d0: 5d97 4a3f b66b 363f 157b 0e3f 71db b73e
000000e0: e180 133f f958 963e e492 903e f41d 093f
000000f0: 0025 433d a131 da3e b07a 083f f5a7 b53e
00000100: 1ad9 4e3f d80b 5b3c 0a4f d53e 3028 613e
00000110: 003c 1c3f 04b6 d83d 58ed 713f 93d0 843f
00000120: 433b 033f d297 2c3f 1689 033e feab 583e
00000130: 5cd3 a83e 3304 883e c749 c63e 8d34 633f
00000140: a21a 313f 1557 103f 36c0 4c3f 5893 523f
00000150: c836 2c3e a804 2c3e 8d88 2e3f 8633 6b3f
00000160: 2e03 6b3d af70 c73e c10a 253f c06c 7d3e
00000170: f03f 3f3f aa6d b43e eb42 843f 9820 903e
00000180: 3229 56bd ebc9 7b3e d6b5 653f 4fbc 9e3e
00000190: ddad 613f 6c76 613f b99c 993e 4edf 563f
000001a0: 13cd 913d 8dde 633f 314e 133e 15d1 523f
000001b0: 3efb 403f da44 923e 2042 413f 15d1 233f
000001c0: 1f04 573f ccdf 213e a622 313f 39d6 073f
000001d0: dc1a 8f3e ffdb 143f a08d 3c3f 6ee5 e23e
000001e0: edfd 2d3f f935 593f c2e6 6d3f af87 a43e
000001f0: 1b96 973e 7bdb ed3e e427 143f 0eeb eb3e
00000200: ac3d f83e 9cd4 f83e 11cf 593f a9eb 7b3e
00000210: c5a1 3a3f ebec 3a3f 9941 0b3e 276d bdbc
00000220: fcdb fd3e 0ebe 5c3f d63f 8e3e 96f8 183f
00000230: eff5 593f 6cd7 763e f38a db3e b654 9f3c
00000240: b915 693f 7467 d03e 4be3 333e 8930 d23e
00000250: f54f 8b3e 3e15 8a3f 0cc4 ec3e 9b21 483f
00000260: 8948 3a3e bd9d 173f 5f0f 983e 19e4 283f
00000270: e300 293e fd7a 073f 78dc 723f f799 6b3f
00000280: 8098 d53e 441f 383e aee1 063d fcc9 d63b
00000290: 7346 c13e 230a 083f 0718 553e 8fdf 603f
000002a0: add6 703e a8f5 013e a030 403f 881a b23e
000002b0: 4d93 653f d4e5 473f 7c15 be3e d0a2 953f
000002c0: f9cf 973f c2b1 533f b534 083f 4eab 493e
000002d0: fe9c 473f 4411 d53e 5919 913e 1a0c 733f
000002e0: 73a7 833e 75ed a53e 425a ee3e ec45 aa3e
000002f0: 5980 103f 4ad6 2f3f 17ac 0f3f fae7 d63e
00000300: 9baa 723e 7adc 4b3f 0f7c 9abd d2de ef3d
00000310: c1c5 e53e b4cc 08bc f6d8 c93e a017 093f
00000320: ff4c b13e 148b 503f 0ec5 0b3f 7a11 ea3e
00000330: 3dc4 b03e 0b06 143e bd1a d83e 6986 bd3e
00000340: 62f9 633f 918b 573e 5e63 503e a912 28bd
00000350: 5234 0a3f 9128 b33e bb43 59bd 64d0 923e
00000360: 28e9 7a3f 1b03 323f e3d5 913e 0087 3c3f
00000370: 0fa9 8f3e 2a5e 2f3e a53c b23e a7e5 433f
00000380: bab9 853f 8eb6 353f b9c2 fd3e efac dd3e
00000390: b75e 453e 383f 273f b771 a5bc be98 cd3d
000003a0: fc85 f03e a1eb 2cbd 4629 ef3c de69 d03e
000003b0: da74 173f d40a 2f3e b208 5d3e f0eb 883f
000003c0: 3898 5b3f 0c96 9e3e 04dc b13e b0e1 9d3f
000003d0: 1118 1f3f f68a 3a3e 4843 523f e84f 523f
000003e0: 384e bd3e f800 af3e 7ed8 5b3f a8e3 e93e
000003f0: c178 023f 6b0c f4bb 72c2 4c3f bb2a 683e
0.48275703 0.3909315 0.43752718 0.45225427 0.8586572 0.37888864 0.8488807 0.53538305
0.97661215 0.86858433 -0.1687824 0.011761553 0.88830537 0.5851531 0.56384933 0.26825017
0.33646718 0.4255592 0.17617887 0.31704614 0.80233604 0.6756522 0.9813586 0.8919311
0.109935924 0.0877686 1.00269 0.08405844 1.0156021 0.46961987 0.5335335 0.58478916
0.16017383 0.12081056 0.44213238 0.14110202 0.8189075 0.04648654 0.98119867 0.06942554
0.86971015 0.5162194 0.7855013 0.9244213 0.9015042 0.8140995 0.5340753 0.7954274
0.14793155 0.7640715 0.801744 0.2555494 0.7913721 0.71258104 0.5565656 0.35909608
0.5761853 0.29364756 0.2823707 0.5356133 0.047642708 0.4261599 0.53312206 0.35479704
0.8080002 0.013369523 0.41661865 0.21987987 0.6102905 0.10581592 0.9450278 1.0376152
0.512623 0.6741916 0.12845263 0.2115936 0.32973754 0.26565704 0.38728163 0.8875206
0.69181263 0.56382877 0.7998079 0.8225608 0.16817772 0.16798651 0.6817711 0.91875494
0.05737608 0.38953158 0.64469534 0.24748516 0.74706936 0.35239917 1.0332922 0.28149867
-0.05228538 0.24588744 0.89730585 0.31003043 0.8815592 0.8807132 0.30002382 0.83934486
0.07119193 0.8901146 0.14385296 0.82350284 0.75383365 0.28568155 0.75491524 0.6399091
0.83990663 0.15808028 0.69193494 0.5306125 0.2795018 0.5814819 0.736536 0.44315666
0.67965585 0.8484798 0.92930233 0.32134768 0.2960671 0.46456513 0.5787337 0.4607777
0.48484552 0.48599708 0.85081583 0.24601616 0.7290309 0.7301776 0.13599242 -0.023123337
0.49581897 0.862275 0.27783078 0.5975431 0.8514089 0.24105614 0.42879447 0.019449573
0.9104877 0.40703928 0.17567174 0.41052654 0.2720944 1.0787733 0.46243322 0.7817628
0.18191732 0.59225065 0.29699227 0.6597305 0.16504245 0.5292204 0.9486766 0.92031807
0.4171791 0.17980677 0.03293007 0.00655484 0.3774906 0.5314047 0.20809947 0.87841123
0.23519392 0.12691367 0.75074196 0.34785867 0.8967789 0.78085065 0.37125766 1.1690311
1.1860343 0.8269311 0.53205425 0.19694254 0.77973926 0.41614735 0.2833965 0.9494034
0.2571369 0.32407728 0.46553236 0.3325647 0.56445843 0.68686354 0.56121963 0.4197386
0.23697893 0.79633296 -0.075431935 0.117124215 0.44877437 -0.008349586 0.3942334 0.53551674
0.34629056 0.81462216 0.54597557 0.4571646 0.34524718 0.1445543 0.422079 0.3701661
0.890524 0.21049334 0.20350406 -0.04103342 0.53986084 0.34991887 -0.05304311 0.28674614
0.9801202 0.6953599 0.28483495 0.73643494 0.2805867 0.17125764 0.34811893 0.76522297
1.0447304 0.7098168 0.49562624 0.43296 0.19274412 0.6533084 -0.020195825 0.10038899
0.46977222 -0.0422169 0.029194485 0.4070577 0.59162676 0.17093974 0.21585348 1.0697002
0.8577914 0.30973852 0.3473817 1.2334499 0.621461 0.18217072 0.82133913 0.8215318
0.3697374 0.34180427 0.85877216 0.456815 0.50965506 -0.0074477694 0.799842 0.2267255

sequential.convlstm2.convLSTMcell.conv.weight f4 [40, 20, 1, 3]
00000000: bc44 7ebd e559 193e 6a39 c83d e49b 8f3d
00000010: 6d28 a0bb 1b6c 073e d820 d13d 1e56 29bd
00000020: b96c 83bd fcff 373e 6596 473e 7972 f43b
00000030: 7064 1abb 7f24 02bd 3101 b8bc 892c 94bb
00000040: c1b6 843c 2c53 1d3e 8c7e 2f3d f2f5 f53d
00000050: e2fb 1f3c 0c41 503d 0cf3 783c 70a7 e6ba
00000060: ba17 00bc 4239 073e 086e 5dbd bbcd 1b3e
00000070: 676d a63d 0bac 08be e201 2c3c d3c9 323d
00000080: 3e8b 813e 4673 0ebe 9ef2 1cbc 80b4 023e
00000090: 671a 10bc c0be 743c 25ce dbbd 3ba2 6cbd
000000a0: 5578 dcbc 6880 a1bc 691d 08be 1ca3 183d
000000b0: eb81 9f3e de2d 9a3d 72a8 213d 761f debd
000000c0: 7a9b a5bb c445 b6bc 91c1 a5bd e8ee 6bbd
000000d0: 4722 693d fd05 873d 4ffe e1bd 09c1 cb3d
000000e0: 19c8 f53c 7d6d e3bd 7f64 e7bd 0d01 90bd
000000f0: 7246 89bd 4a02 873c 8c92 30bc e92f e8bd
00000100: fb3e 0e3c 5684 4c3e 90f1 0f3d cb75 fd3d
00000110: eec4 1b3d 611a b83d 1002 843d 3f12 81bb
00000120: e33c b7bc 6640 fb3d 4d42 56be 2e81 babd
00000130: 9d13 d83c 213b f3bd 064d a53d 35f2 db3d
00000140: 45e8 4bbe 1b17 813d 7773 7b3d a1fb cebd
00000150: ace4 3f3e 1482 ca3d 36f3 57bd c1d9 283d
00000160: 3a9f 413d d1d6 01be cb36 533e e89d 803e
00000170: 5748 533e 26a6 e3bd 901f e2bc 92d7 ed3c
00000180: 02e4 c33c 1d53 82bd f79e 2cbd b4ea 33bd
00000190: e91d bf3d c74a 14be c7fd 383d c575 4a3d
000001a0: b5e5 4a3e 33d6 223d dad5 b13d 6df4 243d
000001b0: d734 88bd 7b42 ecbd 26ed 7fbc fc8c 573e
000001c0: 2620 e03d a006 383e 8868 a5bd 65a2 973e
000001d0: ce58 603e fb37 5bbb f3c8 52be 1c87 0cbe
000001e0: b138 2abe 31e0 d5bd 8b80 01be 52df 993c
000001f0: 416d 433e f3d0 9e3d 8767 b73d f258 13be
00000200: 4e53 733d 8406 e8bc 0c2c a7bd 60cc 353d
00000210: c0d6 593d 2703 a13c 74bd 15be e6cd 153e
00000220: ee87 333d d7e4 6ebd 219b a33d f981 4dbb
00000230: eeb5 17be 572b 15be cea5 f13b 4540 d5bc
00000240: dd76 99bd dc10 e7bd 5672 cb3b 7b71 4cbc
00000250: 049c 20be ccbb 9bbd 69ca 163e 1c07 db3d
00000260: 9990 85bd 9ce2 f8bc 044c 12be 9250 b6bd
00000270: 16d0 8f3d 08cc 1bbd 6ebb cabc 79a2 90bd
00000280: 3ab3 0ebe ecfa b0bd bc6b 14be 7fc7 c7bd
00000290: 2680 8b3d b7b4 0fbe e8a0 67bd 21ad afbd
000002a0: 1623 963d 80df 3fbb 620e 0a3a 7a90 bd3d
000002b0: 4d8d 933d f79e f23d 3f57 3f3e b51a 09bd
000002c0: 5cb1 33bd 236b 4d3e 7a57 f03c c36c 0d3e
000002d0: c926 293d 265d ee3d 1611 703e 85d2 933d
000002e0: c468 f6bc ee53 02be d5ad 0abe 4e7a 0bbe
000002f0: 0e1a fd3c 8e6e 273e 5173 233d 19f6 c83d
00000300: 0fd9 113c 6f93 a6bd 7516 9e3d 9c72 efbd
00000310: bbf7 6ebe 5fb8 96bd 0704 b5bd 0e5f 7d3d
00000320: 7667 363e ab10 3ebe 6979 06be a989 bcbc
00000330: a790 1c3e 48b4 813d 633f ce3d e179 61bd
00000340: f076 463d 7573 b0bc 7b75 0e3e 0a01 f93d
00000350: 4d19 a3bc 9bb2 5e3d b004 ce3d 010b a13d
00000360: 7d58 e53d 7f7b 193d ded0 5f3c 3bda 933d
00000370: 81d6 373d 3cee 20bd f036 383c dc7e 80bd
00000380: 8e55 debc e3ab 0bbd 8d1d 153e a04e 1e3e
00000390: 86c0 7ebb 7962 2abe 7325 25bc 6c33 b5bd
000003a0: 01b8 b33d 8405 aebd 7f38 863c c409 3b3e
000003b0: 1650 103d df4b ab3d edff 31be e90b 1dbe
000003c0: 88b4 71be 2d01 e1bd 8b76 0f3c 3d5f 43be
000003d0: 1206 dd3d e52f aabc c1e3 0a3d 1de7 2d3e
000003e0: 6c43 05bd dcb2 56be a875 59bd 1109 49bd
000003f0: 4db4 96bc e628 0bbe dae6 64bd 2d5f ba3d
-0.06207727 0.14975698 0.09776576 0.07012156 -0.0048876316 0.13224833 0.102113426 -0.041341893
-0.064172216 0.17968744 0.19490965 0.0074599353 -0.00235584 -0.031773087 -0.022461506 -0.0045219106
0.016200425 0.15363759 0.042845294 0.12009801 0.009764643 0.050843284 0.015194666 -0.0017597508
-0.007818157 0.13205436 -0.054060012 0.15215199 0.081263356 -0.13346879 0.010498496 0.043649506
0.25301546 -0.13911161 -0.009579329 0.12764168 -0.008795357 0.0149380565 -0.10732678 -0.057771903
-0.026912848 -0.01971455 -0.13292469 0.03726493 0.31153807 0.0752828 0.039467283 -0.108458444
-0.0050539346 -0.022250064 -0.080935605 -0.057600886 0.056917455 0.06592939 -0.11034834 0.09948928
0.03000264 -0.111048676 -0.11298465 -0.070314504 -0.067028895 0.016480584 -0.010777127 -0.11337263
0.008682008 0.19972357 0.03514248 0.12375983 0.038029604 0.089894064 0.06445706 -0.0039389427
-0.0223679 0.122681424 -0.20923729 -0.0910667 0.02637654 -0.11876512 0.08071332 0.10739557
-0.19912823 0.06303235 0.061389413 -0.10106588 0.18739575 0.09888092 -0.05272218 0.04122329
0.04727099 -0.12679602 0.2062637 0.25120473 0.20633064 -0.11115675 -0.02760294 0.029033456
0.023912434 -0.06363509 -0.04214379 -0.043925002 0.09331877 -0.1448165 0.045163896 0.04942872
0.19814189 0.039755058 0.08683367 0.040272165 -0.066507034 -0.11536118 -0.015620505 0.21049875
0.10943632 0.17971277 -0.080765784 0.29616085 0.21908876 -0.0033450115 -0.20584469 -0.13723415
-0.16623189 -0.10443152 -0.12646692 0.018783245 0.19084646 0.07754698 0.08955293 -0.14389399
0.059405617 -0.02832342 -0.08162698 0.04438436 0.053183317 0.019654823 -0.14623052 0.14629325
0.043830805 -0.058323707 0.07988573 -0.0031357987 -0.14815494 -0.14567314 0.007374502 -0.026031623
-0.074933745 -0.112825125 0.0062086983 -0.012478228 -0.15684515 -0.07604179 0.14725651 0.106947154
-0.065217204 -0.030381493 -0.1428681 -0.08902086 0.07022111 -0.038036376 -0.024747577 -0.07062239
-0.13935557 -0.086416095 -0.14494222 -0.09754848 0.06811552 -0.14033781 -0.056549937 -0.085779436
0.07330911 -0.0029277503 0.00052664254 0.09256072 0.07204685 0.118467264 0.18685625 -0.033472735
-0.043870315 0.200604 0.029338587 0.1381102 0.041296754 0.116388604 0.23444018 0.07217888
-0.030079253 -0.12727329 -0.13542874 -0.13620874 0.030896213 0.16350767 0.039904896 0.098125644
0.008901848 -0.081335895 0.07719127 -0.11691782 -0.23336689 -0.07359385 -0.08838659 0.06185823
0.17812905 -0.18561046 -0.13132252 -0.02301486 0.15289555 0.06333214 0.10070684 -0.055047873
0.04845327 -0.02153943 0.13912003 0.12158401 -0.019909525 0.05436955 0.10059488 0.07863427
0.111985184 0.03747129 0.013660638 0.072193585 0.0448823 -0.039289698 0.011243567 -0.062741965
-0.027140405 -0.03409947 0.14562054 0.1545968 -0.0038872077 -0.16639127 -0.010079729 -0.088476986
0.0877533 -0.08497146 0.016384361 0.18265444 0.035232626 0.08364081 -0.17382784 -0.15336575
-0.23604023 -0.109865524 0.00875629 -0.190793 0.107921734 -0.020774791 0.03390861 0.16982694
-0.032535 -0.20966667 -0.05309072 -0.049080912 -0.018396521 -0.1358982 -0.05588422 0.091001846
