T04 - Pytorch ConvLSTM/checkpoint.pt (torch, 29987 bytes, 19 tensors)

sequential.convlstm1.convLSTMcell.W_ci f4 [10, 1, 32]
00000000: 28c6 7d3f 9271 9bbd ffc9 843e d6dd 4b3e
00000010: 3c79 2d3f af47 083f b9c9 bd3e a2cc 343f
00000020: 4450 4d3f cd5d b93e 232e 343f c4fc 333f
00000030: 22d4 80bd eeb8 dd3e 2154 fc3e bac0 113e
00000040: 80fe f13e d008 f83e df24 933f 7907 dd3c
00000050: cc45 b5bc b13f 2e3e c14f 2f3f ee99 113f
00000060: bbab 503f 3a4e 753f 2158 a03f f182 2c3f
00000070: 92ca 343f 667b b33c c826 983f 0ae5 17bd
00000080: 0cf8 06bd 1797 813e 9c9c 183f 267c b43e
00000090: 7919 8c3e b2bc 133f de1e 863f 9f41 6e3e
000000a0: c2f4 a43d 3e29 2b3f edab 813f 9d7c 1f3f
000000b0: 37f2 cf3e a7d7 3f3f 58e1 463f 86d0 143f
000000c0: 7ff0 f53d 6bf9 5e3f d124 853f 4b85 913e
000000d0: 36a9 323f 20fb 0f3f 4a5a 293f 8476 593f
000000e0: ee4a 1d3f ac02 783f d741 243f b3e8 723f
000000f0: dc12 663f 3702 883e f46b 503f dbb2 423f
00000100: 8720 6f3f b345 8c3e c791 a73e f864 233f
00000110: 269d 093f a2b3 8c3d 2507 073f 6cbd 143f
00000120: 218a 773f 1362 8c3e 007d 92bc f184 8a3e
00000130: 2ef5 8f3f d82f 373f 32c7 523f 4ecf 003e
00000140: 9ce6 de3d 40b3 633f 67af 103f ec81 7e3f
00000150: ab05 b03f ad11 243f 4dee 473f a423 163e
00000160: dacc 003e 2e8a 303f 9dfb cf3e 445f c33e
00000170: 4309 553f 862e 033f 7593 0e3e 9125 313f
00000180: 0ad3 2d3c 18b7 203f a737 003e 5af9 183f
00000190: 3c28 633e 6769 2dbc bd25 123f b811 4b3f
000001a0: 128b b63e c9c1 cdbc 3762 ce3e 2050 4c3f
000001b0: fc3c 843e 45cd c33d 30a4 f13e 87cb 853f
000001c0: a10f 403f 6923 0b3e 8317 093f b632 b7bd
000001d0: 6e93 e83d 4482 713d b8c4 0f3f 3dc4 5e3f
000001e0: b552 363f 921c f63e ed13 2a3f b229 463e
000001f0: bb66 563f 787d 003f 31ae 663e 677e 443f
00000200: 2104 183f 3bc9 623f 433f 683f c7a7 d1bb
00000210: eb3a 233f 3afb fb3e 01eb 623f ba57 c13e
00000220: b177 3e3e ebcc 813f a127 6c3f df6b 813e
00000230: bb4e 423e 64ec 6f3e b423 803f f2f0 c63e
00000240: b4e2 503f be20 833f 79ab 663f 50de 553f
00000250: 4a09 033f e23a 423e 6a19 c43c 6fdd d83e
00000260: 5d81 323f 32d5 043f 5b2b 1b3f 77dd 433f
00000270: 4327 033e dd32 3c3f e241 4f3e a55b 463f
00000280: 9d2d 983e 2b6f 113f e3d1 023f 6b9c 9c3e
00000290: 61d9 083f ca27 5e3f 4176 103f a9b3 813f
000002a0: b0f4 803e 9f58 ad3e 323e bb3e 5e70 0e3e
000002b0: 3a5b 953e a514 093f 14ee d03e 422c 2a3f
000002c0: 5726 903e e8f8 5d3f 4c17 383e a6ba 383f
000002d0: 6ee4 e53e 6478 363f a371 533f f129 143f
000002e0: 0a67 f43e 03da 873e ceb5 113f 582c 7e3f
000002f0: 3101 3c3f 9418 983c 6a40 703f 0554 363f
00000300: daa0 333f 153d 1b3e 3a40 0c3f 4696 323f
00000310: d3db 803e e4e6 473f 2554 3e3f 22ae 0c3e
00000320: 6765 b4bd 48f1 0bbc e486 8d3e 9fa2 df3e
00000330: 7c8a 213f 371a 833e d7d0 153f 8e05 9a3e
00000340: 5eb3 233d adb6 ee3e e552 503f 47c1 ac3e
00000350: 984e 043f b91f 4b3f 1e5a a93e 08e2 2f3f
00000360: 3f6c f63e 7924 3f3f 4810 ac3e 5b62 b43c
00000370: 2614 f93e ca3b bf3e ab44 ab3e 23e2 663f
00000380: c1be 693f 6dde 5d3e 3df2 7e3f c0e3 cb3e
00000390: 3800 e83e 5fe6 013e ecfd 493f c858 453e
000003a0: 808d 8c3f 5e13 943f e56f 2f3f 7f8d 8b3e
000003b0: 6e1a 353e 7e07 103f 22da 3c3f 964e 85bd
000003c0: b3a2 a6bd 4cb9 6f3f 182b a03e 9a34 2f3f
000003d0: 3961 813e 7e1f 1b3f 039e 7c3e 76bd 563e
000003e0: d999 a33e 3750 123f 4b83 423f 5c97 f03e
000003f0: de78 4f3f f38c 6c3e bc23 283f d655 023f
0.9913049 -0.07590021 0.2593536 0.19908842 0.67763114 0.5323438 0.37067965 0.70624745
0.802006 0.36204377 0.703829 0.70307565 -0.06290461 0.43305153 0.49282935 0.14233676
0.4726448 0.48444223 1.1495627 0.026981102 -0.022128008 0.17016484 0.6848107 0.56875503
0.8151204 0.9582249 1.2526895 0.673873 0.706216 0.021909427 1.1886835 -0.037083663
-0.0329514 0.25310585 0.59613967 0.35250968 0.27363184 0.577098 1.047817 0.2326722
0.08054496 0.66859806 1.0130593 0.6229952 0.40614483 0.74938434 0.776876 0.5813068
0.120087616 0.8709933 1.040186 0.28422007 0.69789445 0.5624256 0.66153395 0.84946465
0.6144246 0.96879077 0.64162964 0.9488632 0.8987253 0.2656419 0.81414723 0.7605416
0.9340901 0.27396926 0.32728407 0.6382594 0.53755414 0.068702 0.52745277 0.58101535
0.96695143 0.27418575 -0.01788187 0.2705455 1.1246698 0.7155738 0.823352 0.1257908
0.10883829 0.8894539 0.5651764 0.99416995 1.375173 0.6408947 0.78097993 0.14662033
0.12578145 0.68960845 0.40621653 0.3815862 0.8321726 0.51242864 0.13923438 0.69197947
0.010609398 0.6277938 0.1252123 0.5975548 0.22183317 -0.010584212 0.57088834 0.7932391
0.35652977 -0.025116818 0.40309307 0.7980976 0.25827777 0.095606364 0.47195578 1.0452737
0.7502385 0.13587727 0.535515 -0.08945219 0.11356245 0.05896212 0.56159544 0.87018186
0.7121995 0.48068672 0.66436654 0.19351843 0.83750504 0.5019145 0.22527386 0.76755375
0.593813 0.88588303 0.9072153 -0.0063981744 0.63761777 0.49215108 0.8863984 0.37762243
0.18600346 1.0140661 0.9224797 0.25277612 0.18975346 0.2343002 1.0010896 0.38855702
0.8159592 1.0244367 0.90105397 0.83542347 0.5118605 0.18967775 0.0239379 0.4235644
0.6972864 0.5188781 0.6061303 0.76509804 0.12807946 0.7351511 0.20239976 0.7748359
0.297223 0.56810254 0.5110151 0.30588087 0.53456694 0.86779463 0.5643044 1.0132953
0.25186682 0.33856675 0.3657089 0.13910052 0.29171163 0.53547126 0.4080664 0.6647378
0.2815425 0.86707926 0.17977637 0.721598 0.4490084 0.7127745 0.8259527 0.578765
0.47734863 0.26533517 0.56918037 0.99286413 0.7343932 0.018566407 0.9384829 0.71221954
0.70167315 0.1516002 0.547855 0.6976055 0.25167713 0.78086686 0.74347144 0.13738301
-0.088084035 -0.008541413 0.27641976 0.43678758 0.63101935 0.25605938 0.5852179 0.30082363
0.03996598 0.46623746 0.81376487 0.3374121 0.51682425 0.7934528 0.33076566 0.6870427
0.4812946 0.7466503 0.33606172 0.022019556 0.48648185 0.37350303 0.33450827 0.9018881
0.9130669 0.2166688 0.99588376 0.39822197 0.45312667 0.12685536 0.7890308 0.19272149
1.0980682 1.156841 0.6853011 0.2725639 0.17685863 0.5626143 0.73770344 -0.0650913
-0.08136501 0.93642116 0.31282878 0.6843964 0.25269488 0.6059493 0.24669652 0.20970711
0.31953314 0.5715365 0.7598159 0.46990478 0.81043804 0.23100643 0.65679526 0.50912225

sequential.convlstm1.convLSTMcell.W_co f4 [10, 1, 32]
00000000: 2d4c 153f 3da7 363f f25b 5b3e 1356 233f
00000010: fe39 603f 6ee2 d63e 2bae 3c3f 7f93 2e3f
00000020: 6a2a 923f a96c 1a3f de93 8e3f 7cf6 4d3f
00000030: 084c 603f e495 b9be 809a 0b3f 3251 0e3f
00000040: d323 ad3e 0fcf 693f 1b04 9f3f 1f14 eb3e
00000050: f6f6 16bd abd4 ef3e f551 343f c525 fe3e
00000060: 0ad0 1d3f bc05 8a3f 8f97 923f 26c0 113f
00000070: f3de 4c3f 49c7 5d3e 9094 373f 12a3 2f3f
00000080: f76d 403c 133c 623f a336 363f 1cad 2e3e
00000090: 0d36 163f 2a4a 733f a7af 003e 7556 393f
000000a0: 8216 0f3f c065 103f 217a 613f 14f9 343f
000000b0: 4c1b f83e cdd4 ce3e 25c1 623f fa42 693f
000000c0: ee88 ce3d 4b07 debc bd1b 613f a522 583f
000000d0: b286 853f eac4 8f3e a38c 7d3f 8336 c83e
000000e0: f418 3f3f 8d3f 253f 1388 ee3e 9e87 3d3f
000000f0: 13bd 9a3d 253c 983f 9c6c e03b abb9 3f3f
00000100: 5475 c93e e55c 063f 57e0 3f3e 3799 433f
00000110: 8c9c 8b3f 6e05 d43e dc32 9a3e 27ba a23e
00000120: 6e18 373f 3fec 753e f0f8 213d caf2 883e
00000130: 9231 073f 535c d13d 3d49 803f fa9c 913d
00000140: 31f7 173f b14a 1a3f 0b49 d7bc ad82 2c3f
00000150: 0fb8 8d3f 1cc1 2c3f f711 253f 543e d83d
00000160: 53c4 ca3d f5f7 983f 3c5e 793e 2bd2 fb3e
00000170: 2105 853f 9e2e 523f a58f 833e e7c5 9fbd
00000180: c55e cf3d 60ea 353f 13b5 d23c 0979 543f
00000190: 3f1d 613e 7766 fe3e 1430 823f ada2 223f
000001a0: 7efc 8d3e 2f06 3a3f 3306 543f e0e8 643f
000001b0: 851a bf3e c568 213f 157c 203c ac09 653f
000001c0: 42c4 cb3e 65fd c53d 8389 4e3f 90f5 6f3d
000001d0: bce6 8d3e 671a 0a3f 46d1 133f 8e1b 083e
000001e0: fb9e 7a3e 5640 e53e d216 8a3e 1920 05be
000001f0: c5a7 293f 45fc 9d3f 2db4 d23d 07d7 d53d
00000200: 16f8 2e3f 72dc 613f 0f0c d73e a3a6 243f
00000210: f98b 10bd 1726 c83d 8077 123f 79dd 5c3f
00000220: be79 973e 975b d73e 974b 843e af07 973e
00000230: dab1 cc3e 461f b13e dd82 2d3f 9afa 743f
00000240: decd 5a3f 0b08 b73e 6c01 193f bd00 4b3f
00000250: 08d3 bb3e 2cf2 7b3f c8c7 883d 4c89 be3e
00000260: 181f f13e 4b30 913e 4f31 323f a91f ef3e
00000270: 7736 2f3e e06d 173f 891f 5e3f 1d18 f23e
00000280: 2c30 8f3f e679 213e aa2c 4a3e 31ba 563f
00000290: b6ee 6a3f a3bd 5d3f a20b c43e 35fe 523e
000002a0: a1c0 3b3f 30e0 353f 631f c73e 57f8 983e
000002b0: 4c33 393f f8d7 bc3e a9b5 973e 666f 333f
000002c0: c73d 303e edae df3e 81dd 6e3f 817f 4e3f
000002d0: 221d 513f 5b9a 033f 0866 2f3f 6210 3d3f
000002e0: 73d4 cabe e4fe 873e 324b 083f f39e 763f
000002f0: be6e fb3e f782 0d3f 5d91 683f 12ed 803f
00000300: bb22 0d3e 7af2 e93b 7390 933f 0f58 7d3e
00000310: 5d1c 563f d0eb 3c3f 2d6e 483f 5af0 5e3f
00000320: 557c a9bb 10d7 1f3e cf5e c83e e72f 243f
00000330: 46be 3f3f bc9b 453f 5d9b 583f 5106 693f
00000340: bcb8 043f f626 413d b467 073f 30d6 583f
00000350: 4551 403f 0844 4e3e 6fd1 513f 1454 353f
00000360: faed dabd 67fe 243f 6ec2 0b3f 4336 2b3c
00000370: 20e8 cf3e 0790 f93e 95d7 343e 12f0 003f
00000380: 2c16 dc3e b09e b83e c12e 5c3f 139e 1fbe
00000390: 460f 793e 0a2d 553f 062e 333f 4895 373e
000003a0: 78c5 4e3f 4dd3 843f 013d bc3f 8656 dc3e
000003b0: 655e d93e 6808 293f dfad 4f3f 1e23 883e
000003c0: 3c2a 313f 401d ad3f 2dd4 3a3f b246 5a3f
000003d0: 5d04 173f 836c 1c3f bbc3 263f 556b 10be
000003e0: 1953 fa3e d708 7b3f 0619 413f 6904 433f
000003f0: 44c9 2b3f 40b6 be3c 881c 103f 01c0 323e
0.5831936 0.71348935 0.21421793 0.63803214 0.8758849 0.41969627 0.7370326 0.6819381
1.1419194 0.6032205 1.1138875 0.8045423 0.87616014 -0.3624717 0.54532623 0.55592644
0.33816394 0.9133157 1.2423128 0.4591379 -0.036856614 0.4684194 0.70437557 0.4963819
0.6164557 1.0783 1.1452502 0.5693382 0.80027694 0.21658053 0.71711063 0.686082
0.011744968 0.88372916 0.7117712 0.17058223 0.58676225 0.9503504 0.12567006 0.7239755
0.5589372 0.5640526 0.8807698 0.70692563 0.48458326 0.4039673 0.88575965 0.91117823
0.10084711 -0.027103087 0.8793295 0.84427863 1.0431731 0.2807992 0.9904272 0.3910409
0.7464745 0.64550096 0.4658819 0.7403506 0.07555594 1.1893355 0.0068488847 0.7489268
0.39347327 0.52485496 0.18737923 0.7640566 1.0907149 0.41410393 0.30116928 0.31782648
0.7152165 0.24015902 0.039544046 0.26747733 0.52810013 0.102226876 1.002235 0.07110019
0.5936156 0.6027022 -0.026279947 0.67386895 1.1071795 0.6748216 0.6448054 0.10558763
0.09900727 1.195067 0.24352354 0.49183783 1.039219 0.8210238 0.2569553 -0.07801419
0.10125498 0.7106075 0.025721109 0.82997185 0.21983813 0.4968755 1.0170922 0.63529474
0.277317 0.72665685 0.8282196 0.8941784 0.3732492 0.6305049 0.009795208 0.89467883
0.3979817 0.09667472 0.80678576 0.058583796 0.277151 0.53946537 0.577412 0.13291761
0.24474709 0.44775647 0.26970536 -0.13000526 0.6627162 1.2342612 0.10288272 0.10441404
0.683473 0.88227 0.42001387 0.6431677 -0.03528974 0.0977289 0.5721359 0.8627544
0.2958507 0.42062065 0.2583892 0.2949805 0.3997944 0.34594172 0.67777807 0.9569489
0.8547038 0.35748324 0.59767795 0.79298 0.36684442 0.984164 0.0667873 0.37214124
0.47094035 0.28357157 0.6960649 0.46703842 0.1711062 0.5915203 0.8676687 0.47284022
1.1186576 0.15769157 0.197436 0.83877856 0.91770494 0.8661749 0.38290125 0.20604785
0.73340803 0.7104521 0.38891134 0.29876968 0.723439 0.3688352 0.29630783 0.70091856
0.17211066 0.43688145 0.9330674 0.80663306 0.8168508 0.514074 0.6851506 0.73853123
-0.3961521 0.26561654 0.5323974 0.9633629 0.49107927 0.5527796 0.90846807 1.0072348
0.1378278 0.007139501 1.1528457 0.24740623 0.8363703 0.7379732 0.78293115 0.870855
-0.0051722922 0.15609384 0.39134833 0.64135593 0.7489971 0.77190757 0.84612066 0.91025263
0.5184438 0.047156297 0.52892613 0.84701824 0.7512401 0.2014314 0.81960195 0.7083142
-0.10689922 0.6445069 0.5459355 0.010449949 0.40606785 0.48742697 0.17660363 0.5036632
0.42985666 0.3605857 0.8600884 -0.15587644 0.24322233 0.8327185 0.699921 0.1792804
0.80770063 1.0376984 1.4706117 0.43034762 0.4245483 0.6602845 0.8112468 0.26589292
0.6920507 1.3524551 0.72980005 0.8526412 0.5899103 0.61103076 0.6514241 -0.14103444
0.48891523 0.98060364 0.7542881 0.76178604 0.6710398 0.023280263 0.56293535 0.17456056

sequential.convlstm1.convLSTMcell.W_cf f4 [10, 1, 32]
00000000: 079c a53f 899a 98bb 40d6 743f 8bd7 563d
00000010: b42f 563f e6b9 793e ed5d 383f 0e83 aa3f
00000020: 1b34 1f3f 749c 013f 20aa 7b3f 3c82 373e
00000030: 57f3 743e 96bb 20be d79f 803e f230 773f
00000040: bce4 673f 9d97 6d3f f4ba f93e 07e3 2e3f
00000050: 6ba4 033f b698 a13e fd83 fc3e 964b 003f
00000060: 1533 4b3f 6ab0 9c3e 5f57 723f 0dfa c7bd
00000070: 6e57 053f 13dd 513e 02fc ff3e 4378 2a3e
00000080: 723f 2e3f 284b 433f 71af 8b3f 7d8a 313f
00000090: c70a c43d dfcc 3a3e f8ca 373f 1f14 1e3e
000000a0: 7ab7 443f 8061 293f b6b5 473f b054 913e
000000b0: 106a 3d3f 9fc5 5d3f 5dc4 423f 7e1f ce3e
000000c0: 8b42 c13e 26ca d73e b63e 7d3f e088 193e
000000d0: b6ad dc3e e5db 603f 5e3c fc3e bba6 4c3f
000000e0: 5ee3 753f 6dcb 633f b4b6 8f3f 75d9 eb3e
000000f0: f942 253f 625c 133f 85e6 313f 7459 c13e
00000100: 768b 563f 8bc9 403f f476 4b3f c6d6 693f
00000110: b7c5 1d3f a41c d93e 05fc 3e3e b321 553f
00000120: 43a8 26bb 061e 403e b444 cc3e f5a4 233e
00000130: fd00 413f ed19 bc3e 2159 493f fb75 3e3e
00000140: 8f70 8a3e 2ca9 da3e d147 3a3e 68f9 4e3f
00000150: d062 9b3f f8a6 2b3f 7c91 2b3f 8057 d23e
00000160: d3d2 113f 64c7 953e 6753 143e 7ec5 283f
00000170: 879e 953f bd7a 473f 7da3 d63e 637b 2b3f
00000180: df67 173f b671 163f 3cb6 853e 2c47 223f
00000190: 3641 243f 94a9 af3e 8ae9 db3d d392 c53e
000001a0: 11bf 4b3f 5f63 2e3f 837a e23d e4f8 973e
000001b0: e24f 6e3e d69b 93bd 71b6 313f 7bfc 383f
000001c0: d619 8f3e f499 0a3e 845e 903e 27c2 b1bd
000001d0: 8d61 de3e 10e0 4f3f 5fd1 91bc 6185 9b3e
000001e0: ccac 1c3e d34e 803e f217 5c3f 56d4 6d3e
000001f0: 54bf 4b3e 4844 853f 406b 703f fb7d 073f
00000200: 7f2d 683f cdab 953e 47e0 8a3e 3977 d63d
00000210: aac7 973e 683d 26be b495 713f 5416 0f3f
00000220: 19c0 863e 9a4c 933f 5911 013f f3e6 873d
00000230: e26a fa3c 328b 833e 1162 643e a371 283f
00000240: 7be5 2a3e 2c70 103f 21ed 013f 936a 083e
00000250: 9b02 493f 85d8 763f f36c fc3e d15c 923e
00000260: fcc3 8d3f e8d6 7b3e 65ec 023f 13ad 373f
00000270: 4d77 4f3f 64d2 4ebc 6ee5 d33e e7fe 713f
00000280: d5be 8f3e 9541 603f 8ccb 353f a386 6f3f
00000290: dcb1 f63e 3b85 023e e441 553f b2d4 ee3e
000002a0: 0e7e d13e 8226 273f 058a 3a3e 3da1 263f
000002b0: ea27 8a3e f2af e53e a5fd 2b3f 2d00 f13e
000002c0: 4dde e13e cda3 b8bd ea0f 1b3e 40d8 123f
000002d0: 9c56 e83e aeff c43c b011 943e ad55 893f
000002e0: 362b a1bc c264 fe3c f5a5 0c3f 4c61 6c3e
000002f0: f77a 183f d875 803e b2ee 4c3f d854 bc3f
00000300: ac76 403f ad19 e53e 8b05 ca3e 3739 613f
00000310: a06b c13e 3e1f 783f 1a75 3c3f b785 233e
00000320: 4262 203f c023 543f 31b2 283e 4e05 193f
00000330: 5a37 ec3e 05e5 923d 3b40 b53e 2657 873e
00000340: 51b2 4fbe 0e0a e63e 61b2 193f 1c3b 643f
00000350: a51b 0b3d 0df4 fb3e e321 6b3f 0ea6 be3e
00000360: e685 163c 1db6 813f 2ea7 b73e 34ee 283f
00000370: 17d6 023f 4d86 353f bad9 013f 7bba 5e3f
00000380: 0a07 4a3f deab 603e ea28 8e3f 1571 05be
00000390: f32d ce3e c511 103e b0ea 153f 776b ed3e
000003a0: 9051 a33f 6ecc 523f de9c 533f 36e7 6f3f
000003b0: b478 ab3e 5d4b 303f b78b c53e d9c5 e53e
000003c0: 244c 113e 6229 493f ba5a 793e 797b e63e
000003d0: 3292 293f 23f9 9c3d 5e09 0f3f c6b6 1a3f
000003e0: 7dfe 3a3f f77d 073f 1e53 603f fce4 3c3f
000003f0: 6116 133f 9201 11be 3387 ab3f 595c e43e
1.2938241 -0.004657094 0.9563942 0.05245165 0.8366654 0.24387321 0.7201832 1.3321245
0.6218888 0.50629354 0.98306465 0.17920774 0.23920952 -0.15696558 0.25121948 0.9655906
0.90583396 0.9280947 0.48775446 0.68315166 0.51422757 0.31561822 0.4931945 0.50115335
0.7937482 0.30603343 0.9466457 -0.0976449 0.5208653 0.2049449 0.49996954 0.16647439
0.6806556 0.76286554 1.0912915 0.6935194 0.09572368 0.18242215 0.7179408 0.15437363
0.76842463 0.661644 0.78011644 0.28384924 0.73989964 0.8662967 0.76080877 0.40258402
0.3774608 0.42146415 0.98923814 0.1499362 0.4310128 0.8783553 0.49264807 0.7994191
0.9605006 0.8898228 1.1227632 0.46064344 0.6455532 0.5756284 0.6949237 0.3776356
0.8380655 0.7530753 0.79478383 0.91343343 0.61629814 0.42404664 0.18650825 0.83254546
-0.0025429882 0.18761453 0.39896166 0.15980895 0.75392133 0.3673853 0.78651625 0.18599693
0.27039 0.42707193 0.18191458 0.80849314 1.213953 0.6705165 0.67018867 0.41082382
0.5696232 0.29253685 0.1448494 0.6592635 1.1689004 0.7792166 0.41921607 0.6698515
0.5914287 0.5876726 0.26115596 0.6338985 0.64162004 0.34309065 0.107379034 0.3858858
0.7958842 0.6812038 0.110585235 0.29682076 0.2327266 -0.07207458 0.6941901 0.72260255
0.279494 0.13535291 0.2819711 -0.0867961 0.434338 0.8120127 -0.017800031 0.30375198
0.15300292 0.25060138 0.8597404 0.23225531 0.19897205 1.0411463 0.9391365 0.52926606
0.9069442 0.29232636 0.27124235 0.10471959 0.2964452 -0.16234362 0.94369054 0.55893445
0.26318434 1.1507752 0.50417095 0.06635847 0.030568544 0.25692135 0.22303034 0.65798396
0.16689102 0.5642116 0.50752455 0.13321905 0.785196 0.9642413 0.49301872 0.28586438
1.1075435 0.24593699 0.5114196 0.71748465 0.81041414 -0.012623403 0.41385978 0.94529575
0.2807528 0.8760007 0.7101371 0.93564814 0.4818257 0.12746136 0.83303666 0.4664665
0.40916485 0.65293133 0.18216713 0.6508978 0.26983577 0.44860798 0.67183906 0.47070447
0.44114915 -0.090156175 0.1514279 0.5736122 0.45378578 0.024047699 0.28919744 1.0729271
-0.019673925 0.031053904 0.5494073 0.23083991 0.5956263 0.25089908 0.8005172 1.4713392
0.7518108 0.44746152 0.39457354 0.8797793 0.37777424 0.9692267 0.7361618 0.15968977
0.6264993 0.8286705 0.16474225 0.5977372 0.4613598 0.07172588 0.35400566 0.26433676
-0.20282866 0.44929546 0.6003781 0.89152694 0.03396191 0.49209633 0.9184858 0.37236065
0.009187197 1.0133702 0.35869735 0.6598847 0.51107925 0.7090805 0.5072285 0.87003297
0.7891699 0.21940562 1.1106236 -0.13031419 0.4026943 0.14069279 0.5856123 0.46371052
1.2759266 0.82343185 0.82661235 0.93712175 0.33490527 0.68864995 0.38583156 0.44877508
0.14189202 0.7857877 0.24351016 0.45016077 0.662387 0.076647066 0.5587367 0.6043514
0.7304457 0.5292658 0.87626827 0.737869 0.5745602 -0.14160755 1.3400635 0.44601706

sequential.convlstm1.convLSTMcell.conv.weight f4 [40, 11, 1, 3]
00000000: 419a 9dbe bb0b 413d ca9f 84be ddc0 c93d
00000010: 1bf6 4dbe cd5c a93c 00ad 88bd faa1 30bc
00000020: 8542 68be d2e4 8bbe 4d3f b8be 35d0 aabd
00000030: b70f db3b bbb6 85bd 24a6 843d 6e03 f83c
00000040: c917 5b3d 513c 9bbd dd55 f6bc 8fa3 acbc
00000050: 600c bc3d 1286 91be 7f1e 81be af28 b7bd
00000060: 3541 88be 9fea cdbd bca6 cc3d 655d 4dbe
00000070: 4045 943c 0344 1b3e 3491 03be 756a 8f3d
00000080: 57ab df3d 0c16 1d3a 12ab 93be fce7 7dbe
00000090: f99f d0be 6bd6 29be 77ad 6fbe b7c8 8ebd
000000a0: 197b cd3e bb5d 9d3e aba0 dabd f924 6bbe
000000b0: efaa 00be 396c 6bbe 2a34 13be e0c7 ebbd
000000c0: c59e a2bd 9e16 d9bd 14a2 41be d042 6bbe
000000d0: 9a5f 80be b70e acbe d506 55be c039 a0be
000000e0: 7147 4dbd 2120 d7bd 463d 78be 76f7 d7bd
000000f0: 7865 82be 082e 82be 2eed 273e 35a2 993b
00000100: 9eee 46be d122 cdbd 1159 ca3d 7f79 8bbd
00000110: c285 0abe da36 b03c 6888 493e 48fe 9dbd
00000120: 918b 4fbe c091 073c 081a b6bd 7c48 dc3d
00000130: 5778 26bd 3b6a 7cbd 08b4 613e 4c7e ee3d
00000140: 65a8 20bd e29b 8fbd 9f09 d93b b034 57be
00000150: ede9 18be b549 bdbc 6470 033d 9518 5bbd
00000160: 950d aabb a8b2 7cbe c536 dbbd cd83 cf3c
00000170: 33eb b6be 9cb1 453e dc61 aebd ef81 71bd
00000180: 8bee 253c d340 f8bd 4df3 04be f342 5fbe
00000190: 054c 5e3d 318e acbd 7d2b 22be 1c52 f53b
000001a0: f914 6abd b9c7 a3bc 3655 373e fd9b 923d
000001b0: e280 80bd 7d7f 5cbd fc8a 043d 98c5 55bd
000001c0: 067a 08be 09bd 6c3e 8f0a 1abe 971c 02be
000001d0: 2dcf 5b3c 990b 363d 4476 bbbc 9e7c 9e3d
000001e0: 7850 9d3d 7f7f 703d e74f 463d 1368 03be
000001f0: 75fa 843c b810 6ebd 0a2e 2bbe 8fec ebba
00000200: 62b7 2f3e ca17 64bc c052 b03d cb78 8a3d
00000210: 244d 26bd ce6f 3b3e e825 383e 7297 e5bd
00000220: 0c96 57be b69e 45be ecfd 34be 6a1e 93bd
00000230: 138b e8bc 2ba1 a03d e764 5c3e 05a9 593e
00000240: 0977 99be 8e9e 51be cdea 3fbe fa09 b33d
00000250: 71ec 7abd 99fc af3d c522 8ebe 6a61 f4bd
00000260: 4f4d 4e3e 688e 82bd 787a 31be f36c 11be
00000270: 5744 df3d af79 adbb 2351 10bd f5c0 9b3d
00000280: 417d c6bc 62bc 66be 4266 e23c 091e e3bd
00000290: 4bfe 603d 407f 8c3d ae63 123e ecab d23d
000002a0: 4462 783b a6ce 14be 0cdf 84bd 7311 203e
000002b0: 9504 143d a111 51bc 0ff2 7abc c88c 5dbd
000002c0: dd31 eb3d a755 76bd a0de babd 9926 a0bd
000002d0: 186b 413c 4b7f 50bb 1181 8bb9 335c 843e
000002e0: dfc1 a33e da9b 933d d0e8 183d fd7c 06be
000002f0: 6fe4 7fbe d591 b53d f6d9 98bc 1b9a 82be
00000300: 97c8 253c 35b2 6ebe 7709 503e c44c 293e
00000310: ec03 823c 3398 8c3d abdd 053e 5e5f 29bd
00000320: b284 a33d 99a4 9a3d 09db 143e 05e9 4ebe
00000330: ca50 0f3d c4a9 3dbd 2e2f 843d ff7e 0dbd
00000340: cc4f b53d 36d7 993c c145 d2bd 644a 7cbe
00000350: fc79 27be 6877 dd3d 86e5 053e 9dd7 03be
00000360: 1f7e 59be 1f50 c43d ae78 543e 75be 8bbc
00000370: 6cb7 31be cf75 8fbe 9312 dabd 59fc 12bd
00000380: 77e8 c5bd f398 db3d 64c4 d43d 3259 8c3c
00000390: 5e5f 08be 3d2f 68be 685f 94bd 31b9 5c3e
000003a0: e816 f23d d222 663e 3e00 1dbe 58e1 54be
000003b0: e309 c9bd 5472 b5bd 7f13 a7bc ac16 263e
000003c0: fda0 c73d 7be1 b83c ff47 16bd 13ab 473e
000003d0: fc56 a23d d8a6 173c 2a71 a8be a134 0dbe
000003e0: 99c1 123d 4ef9 8b3d cc1e 023e 9ad3 393e
000003f0: 8bd2 a9be 61e7 23be 7bea d6bd b60f 603e
-0.3078175 0.047130328 -0.2590316 0.09851239 -0.20113413 0.020674134 -0.06673622 -0.010780806
-0.22681625 -0.27323014 -0.35985795 -0.083404936 0.006685223 -0.06528994 0.06477001 0.030275073
0.05348948 -0.07579864 -0.03007024 -0.021074085 0.09182048 -0.284226 -0.2521858 -0.08943307
-0.2661225 -0.10054516 0.099927396 -0.20055158 0.018099427 0.15162663 -0.1284836 0.07002727
0.10921352 0.000599236 -0.28841454 -0.24795526 -0.4074705 -0.165857 -0.23406015 -0.06971877
0.4013298 0.30735573 -0.10675176 -0.22963323 -0.12565206 -0.22990502 -0.14375368 -0.115127325
-0.07940439 -0.10600017 -0.18909484 -0.22974706 -0.25072938 -0.33604977 -0.20803387 -0.3129406
-0.05011696 -0.10504175 -0.24242124 -0.10545246 -0.2546804 -0.25425744 0.1639907 0.004688526
-0.19426963 -0.10016406 0.09880269 -0.06810283 -0.13527587 0.02151053 0.19680941 -0.07714516
-0.20268084 0.008274496 -0.08891684 0.10756013 -0.04064211 -0.061624747 0.22041333 0.11645183
-0.039223094 -0.07012154 0.0066234614 -0.21016192 -0.14932986 -0.023106435 0.032089606 -0.05349024
-0.0051896074 -0.24677527 -0.10703806 0.025331402 -0.35726318 0.19306034 -0.08514759 -0.058961805
0.010127674 -0.12121739 -0.12983437 -0.21802883 0.054271717 -0.08425558 -0.15836902 0.007486595
-0.057148907 -0.019992696 0.17903599 0.07158659 -0.062745824 -0.05383252 0.03235911 -0.052190393
-0.13327798 0.23118986 -0.1504309 -0.12706219 0.013416094 0.044444654 -0.022883542 0.077386126
0.07681364 0.05871534 0.048416045 -0.1283267 0.016232708 -0.058121413 -0.16716781 -0.0017999577
0.17159799 -0.013921687 0.08609533 0.06761321 -0.04060091 0.18304369 0.1798321 -0.112105265
-0.21053332 -0.19298825 -0.17674989 -0.071835354 -0.028386628 0.0784324 0.21522866 0.21255882
-0.2997363 -0.2047064 -0.18741913 0.08742137 -0.061260644 0.08593101 -0.27760902 -0.11932643
0.20146678 -0.06374818 -0.17331874 -0.14201717 0.10901707 -0.005294047 -0.035233628 0.07605163
-0.024229648 -0.225328 0.027636651 -0.11089713 0.054930013 0.068602085 0.14295837 0.10286698
0.0037900368 -0.14531955 -0.06487855 0.15631656 0.036137182 -0.012760551 -0.0153165 -0.054089338
0.1148412 -0.06014028 -0.091244936 -0.07819862 0.011805318 -0.0031814154 -0.00026608308 0.25851592
0.3198385 0.07207461 0.037331402 -0.13133617 -0.24989484 0.08865706 -0.01865862 -0.25508198
0.010118625 -0.23310168 0.2031611 0.1653319 0.01587101 0.06864967 0.13072841 -0.041350715
0.07984294 0.07550926 0.1453668 -0.20206077 0.034989156 -0.04630448 0.06454311 -0.03454494
0.08853111 0.018779378 -0.10267211 -0.24637753 -0.16355127 0.108137906 0.13075837 -0.12875219
-0.21239518 0.095855944 0.2074916 -0.01705859 -0.17355126 -0.28019568 -0.10648074 -0.03588519
-0.0966348 0.10722532 0.10389021 0.017132375 -0.1331763 -0.2267427 -0.0724476 0.2155502
0.11820775 0.2247422 -0.15332124 -0.20789087 -0.09816339 -0.08859697 -0.020395039 0.16219586
0.09747503 0.022568455 -0.036689755 0.19498853 0.07926747 0.009256087 -0.32898837 -0.13789608
0.03582916 0.068346605 0.1270706 0.18147126 -0.33168444 -0.16006233 -0.10493942 0.21880993

sequential.convlstm1.convLSTMcell.conv.bias f4 [40]
00000000: 2797 993d a2ad 813d 52ce 6b3d 3a11 fe3d
00000010: ba55 3dbc efd7 853d 9b49 aebd 98b5 8abe
00000020: 580a cdbd d740 0c3d 5e5e ba3c 6088 b13d
00000030: 5291 ed3d 5a76 583e 4e47 11bd 702e 68bb
00000040: d30c adbd 429a 1abe bd73 86bd 20a6 1dbe
00000050: 3c87 3b3e 2651 2dbd ea05 5fbe e5d0 1ebd
00000060: 95f1 663e 064a 13be a93d 363e 209d cb3c
00000070: d13a 16bd a3b9 5abe 283e 20be b0dd 1dbe
00000080: ca82 2a3d 5dc8 4d3e 50aa 933d 16ae a83d
00000090: 1e9e cf3d f238 54be cb2e b7bc a3ac e7bc
0.07499533 0.06331946 0.05756981 0.124056295 -0.011556083 0.06535327 -0.08510133 -0.2709167
-0.100117385 0.034241524 0.022750076 0.086685896 0.11599983 0.21138898 -0.035468392 -0.003542807
-0.08449712 -0.15097907 -0.06565044 -0.15395403 0.18313307 -0.042313717 -0.217796 -0.038773436
0.22553094 -0.14383706 0.17796959 0.024855196 -0.036677185 -0.21359877 -0.1564871 -0.15416598
0.041628636 0.20095964 0.07210219 0.08236329 0.1013758 -0.20724848 -0.02236118 -0.028280562

sequential.batchnorm1.weight f4 [10]
00000000: b56e 703f 848f 723f 6eb5 733f ff3e 883f
00000010: 9f95 553f e43a 843f 7bd6 4d3f 289b 683f
00000020: 87c4 883f b877 3a3f
0.93918926 0.9475024 0.95198715 1.0644225 0.8343143 1.0330472 0.80405396 0.9086175
1.0684975 0.72838926

sequential.batchnorm1.bias f4 [10]
00000000: 9526 e23d f0be 86bd 5236 6cbe c07d 383e
00000010: 35c7 473d 7f0b 98be fb95 a7bd bf0c efb9
00000020: 120f 8e3e 7caa 01be
0.11042515 -0.06579387 -0.23067597 0.1801672 0.048773963 -0.2969627 -0.081829034 -0.0004559513
0.27745873 -0.12662691

sequential.batchnorm1.running_mean f4 [10]
00000000: 7236 c03d 9ff7 02bb 6fe1 4cbd 83e4 913d
00000010: 83ed 443e 08da 023d 64d7 3f3e 4bdf af3d
00000020: 8920 bc3c a2e4 e6bc
0.093853846 -0.001998402 -0.050019678 0.07123663 0.19231229 0.031946212 0.18734509 0.08587512
0.022964733 -0.028185192

sequential.batchnorm1.running_var f4 [10]
00000000: cfd6 553a 949e b339 1b07 583a ed4d 1e3b
00000010: be94 653b 7a3f 653b eee6 c23b 5de2 873b
00000020: 4598 9d3a d973 ea39
0.0008157314 0.0003425969 0.0008240805 0.0024155334 0.0035031284 0.0034980462 0.005947939 0.0041468577
0.0012023529 0.0004471827

sequential.convlstm2.convLSTMcell.W_ci f4 [10, 1, 32]
00000000: 6724 633e 5fc8 41bd 1449 af3e 68ec d73e
00000010: 3996 013e 0d6d 6cbe 50a1 8b3d 6d13 673f
00000020: 2002 c53e 511c 893e d375 273f 209d 453f
00000030: efe8 6b3f 1d29 4b3e b28c 2d3d 3cc9 0a3f
00000040: 1ef9 533f 354a 0e3e b030 233f 68b5 d13e
00000050: dffd f83d 5e4e daba 5ded fb3b 7acb d13e
00000060: eb46 5e3f d945 1b3f 42d2 8c3e 9c80 d83e
00000070: c919 623f eab3 a43e 9aa0 623f 4834 613f
00000080: c239 1c3f 7727 6f3f 34a2 113f de96 603c
00000090: 78ca 203f d47f b43e d9e4 0d3f adbf 103f
000000a0: 3dcb 8cbc b15a c23e 3d22 853f 5b50 ff3e
000000b0: 462f 523e 8866 84bd cfd2 f23e ac5f e03d
000000c0: e12c 1c3f 02f9 6d3e 253b 613f bbe8 1a3f
000000d0: fcae 2e3f 0603 593f 62e7 303f e8c3 4e3e
000000e0: cb98 383f 8a9c 5ebd 29eb 7f3f 14c9 6c3e
000000f0: 37df 3e3f f79c 903e ebf6 3e3f 2f4f 2bbd
00000100: 4fa9 d03e 2616 d43e 0e05 103f 57a3 923e
00000110: eb57 853c 4d5e 403f 02be 413f 813f a13e
00000120: 7111 f63c 372e 673f dca2 14be b49d c53d
00000130: 4340 063f 4031 543f da59 8d3f 6e86 633e
00000140: 2a44 463f 5c47 563f c4ee e03e f9a3 423d
00000150: 4012 a03e e72c c93e 08f7 6b3f 5705 b03e
00000160: c1bb 823e d039 4bbc 469f 553f f8d1 913d
00000170: ca13 3c3f 2306 bd3e a4fb eb3e 120e 953f
00000180: 0732 e73e bceb e43e 4970 053f a31b 973e
00000190: 74b5 2f3f ddfa c83e de8d 553f ba36 793e
000001a0: 9f61 403f 0e5d 523e 3d6e a43d 917b 983e
000001b0: 12b7 803f 4b66 5c3f baa4 523f e04c c13e
000001c0: e39d 553f c93a e039 1512 a1be 1c12 883e
000001d0: f436 7f3e c811 6c3f 564f 073f 4a87 253e
000001e0: 1d5a 863e f48c 2d3f 08ea e1bd dd12 573f
000001f0: 800c dabd 769c 043f 0bc5 363f ac7d b73e
00000200: 834c d13d 9677 5b3e b249 163d af9f 913f
00000210: bed5 8cbd e99f da3e 5fd9 cd3c 5352 2b3f
00000220: c29e c6bd 0f56 043f ca32 9bbd 8b9d 193f
00000230: 02cc 913e 518f 253f bdac c5bc 6340 573f
00000240: 7c29 3f3f 7235 323f 1db7 643e 1d98 9a3e
00000250: 25fa 233e ab63 a23e 3cb9 023f 87f5 723e
00000260: e4d4 963f 86a3 3e3f f3b0 283f 8893 3f3f
00000270: dc70 313f 382a 123f 8dc9 403d 765f 573f
00000280: 3fb6 5e3f fb24 0e3e f904 6a3f 8bc1 463f
00000290: 2385 323f dd51 be3e f67f 0c3c a24c 803c
000002a0: 839d 473e b7cd f93e d2de 393f 7ddf 8b3f
000002b0: 7d0e 513e 4d07 4b3f d889 b23e 1038 7b3f
000002c0: 5e7f 053f 2db0 203f 1443 c03e 3892 fe3d
000002d0: 987c 113e f66f 2f3d 89c5 e53e a830 403e
000002e0: 0d9a 093e 9dc9 023f 97a8 2c3f 8b55 583e
000002f0: bbe8 bb3e e1bd 9a3e c40c 293f c1ac 453f
00000300: 0a19 713e c9bf 5d3f 7124 683f b255 9b3e
00000310: 1ea1 533f a7b0 4c3e 4e57 37be 53a0 003f
00000320: 334e 5c3f f208 cb3e 05a7 5b3f 6785 92bd
00000330: c39c 3d3e ba90 d93e 1b4c 703e a74e 2e3e
00000340: 88a1 7e3f 9442 863f eb84 463f ad88 e23e
00000350: f211 613f d627 f83e 9200 c8bd 7bd4 533f
00000360: f56f 7f3d 5ea4 283f 2c9d 243f ceb5 1b3f
00000370: 0da7 7a3e 7abe 603f c744 81be f302 423f
00000380: 888a 6e3f cbd3 7b3f 8fd9 b23e 97ab 863f
00000390: 7d0d 0a3f e54b ef3e 6254 6e3f 0fc3 b7bb
000003a0: fe38 493f e85b 1b3f 8d2a b93d 6eaf 9f3e
000003b0: 438d 483f cbcc 1a3e a479 33bd a1fe 3d3f
000003c0: c6d4 903e 6055 363f 7a5d 0c3f 8255 c03e
000003d0: 9c2b ae3f bdf0 8b3e ba3b 1d3e 820c 663f
000003e0: 961e d43d 0034 053f 0c81 2b3f 2ef4 1c3e
000003f0: 5a56 8a3f e726 023f 49e1 b53e 0d24 ea3d
0.22181855 -0.04731023 0.34235442 0.4217255 0.12654962 -0.23088475 0.06817877 0.90264016
0.38478184 0.26779416 0.6541416 0.7719288 0.92152303 0.19839902 0.042370506 0.5421331
0.82802 0.13895495 0.63746166 0.40958714 0.12157797 -0.0016655435 0.007688208 0.40975553
0.8682696 0.60653454 0.27504164 0.4228562 0.88320595 0.32168514 0.8852631 0.879704
0.6102563 0.93419594 0.5688813 0.013707845 0.6280894 0.35253775 0.5542732 0.56542474
-0.017186755 0.37959817 1.0401074 0.49865994 0.20525846 -0.06464869 0.4742646 0.10955748
0.6100598 0.2323952 0.8798087 0.6051137 0.68235755 0.8477024 0.6910306 0.2019192
0.72108144 -0.054348506 0.999682 0.2312358 0.7455935 0.28244755 0.74595517 -0.041823562
0.40754172 0.41423148 0.5625771 0.28640243 0.016277274 0.7514389 0.75680554 0.31493762
0.030037614 0.90304893 -0.14515251 0.0964922 0.52441806 0.8288765 1.1043046 0.2221925
0.7744776 0.83702636 0.43932164 0.047519658 0.31263924 0.3929207 0.92173815 0.34379074
0.2553387 -0.01240392 0.83446157 0.071201265 0.73467696 0.36918744 0.46090424 1.1644919
0.45155355 0.447111 0.5212446 0.29513273 0.6863625 0.39253893 0.834196 0.24337283
0.7514896 0.2054331 0.08028839 0.29781774 1.0055869 0.86093587 0.822826 0.37753963
0.8344404 0.00042768408 -0.31459108 0.26576316 0.24923307 0.9221463 0.5285543 0.1616489
0.26240626 0.677932 -0.11030966 0.8401316 -0.106469154 0.5180124 0.71394414 0.35838068
0.102196716 0.21432337 0.036691375 1.1376857 -0.068767056 0.42700127 0.025128065 0.6692249
-0.096982494 0.51693815 -0.075780466 0.60006016 0.28475958 0.6467181 -0.02413022 0.8408262
0.74672675 0.696128 0.22335477 0.30194178 0.16013391 0.31716666 0.51063895 0.23726474
1.1783719 0.74468267 0.65895003 0.7483449 0.69312835 0.5709567 0.047067214 0.84130037
0.86996835 0.13881294 0.9141384 0.77639073 0.697344 0.37171832 0.00857543 0.015661541
0.1949368 0.4878976 0.7260562 1.0927578 0.20415683 0.79308015 0.3487079 0.9813242
0.5214747 0.6276882 0.37551177 0.12430233 0.14207685 0.042831384 0.4487727 0.18768561
0.13437672 0.5108889 0.6744475 0.21126382 0.36700997 0.3022299 0.66035104 0.77216727
0.23544708 0.86620766 0.90680605 0.30338818 0.8266772 0.19989263 -0.17904398 0.50244635
0.8605682 0.39655262 0.85801727 -0.07154351 0.18516831 0.4249323 0.23466532 0.17022191
0.9946523 1.0489068 0.77546567 0.442449 0.8791801 0.48467892 -0.09765734 0.82746094
0.06236263 0.65875804 0.64302325 0.60824287 0.24477787 0.87790644 -0.25247785 0.7578575
0.9318013 0.98370045 0.3493161 1.0521115 0.5392683 0.4673759 0.9309751 -0.0056079696
0.7860259 0.6068711 0.09041319 0.3118853 0.7834055 0.15117185 -0.043817177 0.7421666
0.28287333 0.7122402 0.54830134 0.37565237 1.3607059 0.27332106 0.15354815 0.89862835
0.10357396 0.5203247 0.66993785 0.15327522 1.0807602 0.5084061 0.3552344 0.114326574

sequential.convlstm2.convLSTMcell.W_co f4 [10, 1, 32]
00000000: 4b01 523f 3034 273f ba99 f83e 500e 893f
00000010: 8b8f 3b3e 1ba1 033f ef26 e63e 47eb 1a3f
00000020: 630f 4c3f 5ae2 b73e f1ac 063e 4069 443f
00000030: 9e71 c73e 30d2 3f3e e1c5 5b3d 530c 9c3d
00000040: a552 0a3f 141c 2c3f b672 e43e 395f fe3e
00000050: 52dc d23e e8d2 773f 1e5c fb3e 77c1 de3d
00000060: d41b ff3e c4fc 0d3f f135 3f3f 684a 8d3e
00000070: 1322 1b3e 1665 b63e eb0a 443f c860 393e
00000080: 6d57 2c3f 7781 5e3f d950 8a3f 5ade 9d3e
00000090: c70a cd3e 7679 253f 6edf 3a3f fcac 833e
000000a0: 6e60 d33d a1d8 533f eb0d 543f f361 363d
000000b0: 3250 133f 7488 de3c 1652 243f fc6f 04bd
000000c0: beab de3e d07e 383f f410 423f 7c6e ae3e
000000d0: ad16 763f 54c7 cf3e 4d2a c4bd e651 343e
000000e0: 364c c03e 0fa0 1e3f bc51 8d3f 62f9 1b3f
000000f0: 02e9 9e3f 8762 c7bd 12d2 243f 28fb 1a3f
00000100: 8063 553f 327c 673e 7570 943e 3e11 593f
00000110: be99 153f aa85 873f 1f58 e83e a777 233f
00000120: 8526 2e3f 6ef3 8a3e 39f7 e83d 781d 633f
00000130: 4dcc 523f bb71 4f3f 1417 033f f52e 233f
00000140: df7a bd3e 7580 6d3f 72f2 053f 9224 163f
00000150: ce04 87bb 2bc8 a13e 08f1 323f 1628 1e3f
00000160: 49ff 843f 7d42 5e3f f2d8 073f 9908 b93e
00000170: 5477 233f 8bf6 303f 47be 873f fa24 523f
00000180: a67e da3d b0a9 b53e 6f13 1a3f e673 683e
00000190: 1c8c 2f3e 9fd8 0b3f b30d 113f c991 3c3f
000001a0: af61 793f 8fa8 003f cb6e 5b3e acdd 493e
000001b0: d64d 813f c080 163f 9ba5 8f3e f08c 2d3f
000001c0: 08a6 f63e c163 bd3e 51b1 d03d 4a97 603f
000001d0: b320 d43e 6a60 3a3f c064 063f 0c96 313f
000001e0: 0c24 f53e a876 273d e28d 1c3e e477 473f
000001f0: 7831 2abc 8b3b 4d3f 5910 623f 44ae 583f
00000200: 3b0c c43e a7f7 683e 176c 993e 5c86 a13e
00000210: 64bc 9b3e f161 8f3e 58ca 343e 493d 133e
00000220: 18f0 513e eacd 1f3d 85fe 2b3f 08d8 613f
00000230: dd97 633f 63f4 823e 5f40 ce3d bc57 2c3f
00000240: 7e26 3d3f 5c5b 9d3e bcb8 18bd 0487 d93e
00000250: 4179 153f 8f5e 603f a8d0 ca3c cb13 863e
00000260: 029e fa3e 93fe 913e e372 be3d 9853 cf3e
00000270: c4d2 0f3f 1ab8 163f 491f 123f b80c 1b3f
00000280: 5de9 bf3e 075f 423e 4c3f 4d3f 79f6 4e3e
00000290: 82be 8d3f 74b5 0a3e 1c0e 8e3e 7c81 88bd
000002a0: 56a0 583f 3a3e a63e b02b 043f 0c16 9a3f
000002b0: 23cc 423f d43d 833e 7ecc c13d 04f5 0a3f
000002c0: 4768 d43e f7a2 013f 5309 3f3f 8c16 c83e
000002d0: c0c3 bc3e 81e1 3c3f bc1a 053f ec11 893e
000002e0: 6bc2 1c3f 202c 3d3d 1823 073f 5865 7a3e
000002f0: d533 b43e 60fa 343e 99f4 043f 79d7 643f
00000300: 48aa 3e3f 0a25 ad3f c0f5 253f 2f02 263f
00000310: b729 153f bf35 cd3d 7061 51bd 29ce 0a3f
00000320: 4986 393f 6b34 443f fb0a 0b3f c754 253d
00000330: 5e2f 453e 7f41 133f cdea fa3e a633 933f
00000340: 83b2 3f3e d2e0 8c3f ac3b 8a3f 1fd9 2f3f
00000350: f7e5 663f 7bd0 bd3e 6ec4 9d3e fc44 d93e
00000360: 4e5a d23e 2f36 a23f 3565 513f 7276 173f
00000370: de5c d33d 6ab0 f33e b563 083f 04ba 343f
00000380: 4182 80bc 6fdc cf3d 1384 083f 52b2 bb3e
00000390: b721 383e 1954 143f fbc0 273f 6b08 e13e
000003a0: ac4f 183f 8161 323f 21f6 063f 8340 85be
000003b0: 6002 5d3f 7ea3 7f3f 7d75 343d 96c2 783e
000003c0: 3f41 193f 5cac 6b3e 6c8c 263f 20c3 e13e
000003d0: ded9 833f baf3 283f 7a07 283e 5c3d 403f
000003e0: 2f0d 5f3f 4f43 353f 49b1 1f3f 840f a3be
000003f0: 2cea 0540 20c2 af3e 36de e43e 7f9c 023f
0.8203322 0.65314007 0.48554784 1.0707493 0.18316476 0.514177 0.4495158 0.60515255
0.7971098 0.3591488 0.1315191 0.767231 0.3895387 0.18732524 0.05365551 0.07619538
0.54032356 0.67230344 0.44618767 0.49682024 0.41183716 0.9680619 0.49093717 0.10876744
0.4982592 0.55463815 0.74691683 0.2759583 0.15149717 0.35623997 0.7657916 0.18103325
0.673209 0.869163 1.0805923 0.30833703 0.40047285 0.6463846 0.72997177 0.25717914
0.10321127 0.82752424 0.8283374 0.044527005 0.57544243 0.027164675 0.64187753 -0.03233336
0.43490404 0.720685 0.7580712 0.34068668 0.9612835 0.40581763 -0.09578381 0.17609367
0.37558144 0.6196298 1.1040568 0.609274 1.2414858 -0.097355895 0.6438304 0.60539484
0.8335495 0.2260597 0.28992048 0.84791934 0.58437717 1.0587666 0.4537973 0.6385445
0.68027526 0.27138847 0.11375279 0.8871684 0.8234299 0.81032914 0.5120709 0.63743526
0.37007806 0.92774135 0.5232307 0.5864955 -0.004120446 0.3159803 0.69899035 0.61779916
1.0390407 0.86820203 0.5306541 0.36139372 0.63853955 0.69126195 1.0604943 0.8208767
0.106686875 0.35481024 0.60185903 0.22700462 0.17143291 0.5462741 0.5666153 0.7365995
0.9741468 0.502572 0.21428983 0.19713467 1.0101879 0.58790207 0.28056034 0.6779318
0.48173547 0.3699017 0.101900704 0.8773085 0.41431198 0.72803366 0.5249748 0.6936958
0.47879064 0.040884644 0.15288499 0.77917314 -0.010387771 0.8016898 0.88306195 0.8464091
0.3829058 0.22750722 0.29965279 0.3154782 0.30417168 0.2800441 0.17655313 0.14378847
0.20501745 0.039014734 0.6718524 0.8822026 0.889036 0.25577077 0.100708716 0.6732137
0.7388686 0.30733764 -0.03728555 0.4248582 0.58388144 0.87644285 0.024757698 0.26186976
0.48948675 0.28514537 0.09299257 0.40493464 0.5618098 0.58874667 0.5707899 0.6056628
0.3748273 0.18981563 0.8017471 0.2021121 1.1073763 0.13545781 0.2774514 -0.06665322
0.84619653 0.3246935 0.5162916 1.2037978 0.7609274 0.2563311 0.09462832 0.54280114
0.41485807 0.5063929 0.746236 0.39079702 0.36868095 0.7378159 0.5199392 0.26771486
0.6123416 0.04618466 0.52787924 0.24452722 0.35195795 0.17673635 0.51935726 0.89391285
0.7447858 1.3526928 0.6482811 0.6484708 0.58266777 0.10020017 -0.051118314 0.54220825
0.7247053 0.76642483 0.5431363 0.040364053 0.1925635 0.57521814 0.49007264 1.1500137
0.1872044 1.100611 1.079946 0.68690675 0.9019465 0.3707312 0.30813926 0.42435443
0.41084522 1.2672786 0.81795055 0.5916511 0.103204474 0.4759553 0.5327714 0.7059634
-0.01568711 0.10149466 0.5332653 0.36659485 0.17981611 0.5794082 0.6552884 0.43951735
0.5949657 0.6968003 0.5271931 -0.2602578 0.8633175 0.99858844 0.044057358 0.24292979
0.5986518 0.23014969 0.65058017 0.4409418 1.0300863 0.659969 0.16409102 0.75093627
0.8712949 0.7080583 0.6237989 -0.31847775 2.0924177 0.34327793 0.44700783 0.51020044

sequential.convlstm2.convLSTMcell.W_cf f4 [10, 1, 32]
00000000: 00e7 a33e 4512 26bd bbe7 f23e 7cba 4d3f
00000010: 9f68 473f 1b74 8e3e b1c2 073f 5ca0 bf3e
00000020: 4141 673f beb3 803f fbef 243e 6688 ef3d
00000030: 2b17 6c3f 6fc1 0e3f fea3 0b3f 188a 023e
00000040: 1492 eb3e 486b 003f c9a1 e43e 4f52 d53e
00000050: 4865 643f b92d 3f3f 137f 333f 2bd9 323f
00000060: b614 b63e 2a60 7bbd a546 8b3f 36e0 eb3d
00000070: c460 673f 8959 103f b871 1d3f 4b0c c83e
00000080: 0c15 e53d bbd4 823e 8432 5b3f c246 36be
00000090: bf90 493f a6e1 773d 2602 583f effe 5ebc
000000a0: 6731 393f 5409 483d 5839 8e3f 0e00 803f
000000b0: c648 673f 07bb 243f f5f8 d63e 3ac2 eb3e
000000c0: 8285 e13d 74d0 d03e cc72 753f ea8f db3e
000000d0: 211a 8b3f 0535 1f3f 5bf8 c13e 93e6 97be
000000e0: f65d d53e 8cb1 1c3e 2338 a33e 49fd 443f
000000f0: a821 bf3e f74a c13e 89cb d13e cb93 093e
00000100: d7b7 4f3f ad82 3f3e 1bef 933e 9bc4 3e3e
00000110: 5a0b f93e 02ec 553e b52f 6f3f e310 893f
00000120: 2149 d83e 907d 493f c88b 62bd 8e40 fe3d
00000130: 378b aa3e da07 b83e 1909 1f3f 23fb 573f
00000140: b241 2b3f ff78 313f 2890 2c3f cf46 3b3f
00000150: e277 2c3e ab07 f33d 3c87 573f 61d3 4a3f
00000160: f925 873e 2433 fc3e 579e 0d3f 243b 9b3d
00000170: 44f2 3e3f 8235 9f3e d438 823f e92b 713f
00000180: e17c 0f3e d179 8f3e 868c da3e af3e a63e
00000190: 78dc 0d3f f218 493f 525c 173f 03cc 643f
000001a0: 2c69 073e 623a 2d3f 6c90 15bb f7e7 5d3f
000001b0: db07 403f ff82 cd3e 1806 623f 50b6 0e3f
000001c0: b9da 263f 14df 80bd 48eb 5b3e b893 c13e
000001d0: c80b b53d ad27 3b3f 2105 323f d54b f03e
000001e0: 2de4 e83e 0b48 203f 9051 2d3f 436d 963e
000001f0: d673 f73d cd11 313f b153 263f 02be 1f3f
00000200: 637c 903e ab5a c53e 6655 2f3f 233f 053e
00000210: 92b2 0b3f 167b 493f d06e a43d b7d3 953d
00000220: 1d8a 6f3e 2884 7c3f e77d 763e 7067 273f
00000230: c302 833f 5d7f 4c3e 091b 963e f9ac 2a3e
00000240: 3a5d ab3f 92b1 db3e 2441 2b3e 74d8 893e
00000250: e95d f63e 8f97 643f c90a 0b3f 14b6 5e3f
00000260: f5bb cb3e 74d0 1b3f 2c3f 243e 5547 463f
00000270: a498 bc3e f771 3f3f 12fe 453f a204 593f
00000280: 5d4a 663e ecc0 abbe e71c 343e 84ae 26bd
00000290: ed92 bd3e 5f2c af3e 705a 94bc a323 923e
000002a0: f6ab 7b3d d10f fd3d 3a49 d63e 6f73 153f
000002b0: 0fc5 7b3f 2964 483f 42ed 573d a434 733f
000002c0: 0965 6d3f 02cf 2f3f 4c24 2b3f 21a9 233e
000002d0: 12d9 733f 3557 053f 00dc 873d e8fa 5a3f
000002e0: 1480 8a3e 3dec 483e fe03 c33e a68e a23e
000002f0: 17da 313f 5078 663f b5ce 373f 6f13 d83e
00000300: 714a 7f3e 358f 933f 2222 053d 9c8f a5bd
00000310: 66eb e93e 06af dd3c 1844 f83d e418 0b3f
00000320: 6125 083f 569f 333f 17c9 3d3f 45d6 b83e
00000330: ef87 a63e 070f d23d 43d7 af3e 047c f13e
00000340: 1980 273f 1bf8 113f c500 4d3f 4e3e 82bd
00000350: c72c d33e f061 823e c55f dcbd 0a7f aa3e
00000360: 5e89 7d3f 82a3 773f 292b c33e dffd 1b3f
00000370: 2287 6c3e 6212 e73d 6664 a23d 9ce1 513f
00000380: 3fa6 773f 1aa2 4d3f 8c25 d63e 86b7 0c3f
00000390: 772e 8d3e a27b 7f3f f167 ed3d eef0 633c
000003a0: ece9 ce3e a3f5 b33e 1841 7e3d 88b0 fb3e
000003b0: df44 fd3e 8543 333f 50d4 6e3e 8ba1 6e3f
000003c0: bca2 313f 0739 f33e f80d 063f a115 7c3f
000003d0: 1e05 963f 49f2 253f 3cb2 523f f549 393f
000003e0: 6a26 b33e ad0c f73e 54f8 cb3e 9b96 173e
000003f0: c6e2 a03f 0bb9 a03e b681 273f e435 f03d
0.32012177 -0.040544767 0.4744242 0.8036268 0.77894014 0.27822956 0.5303145 0.37427032
0.90333945 1.0054853 0.1610717 0.11695938 0.9222285 0.55763906 0.5454711 0.12747991
0.46009886 0.501637 0.44654682 0.4166436 0.8921704 0.7467914 0.70115775 0.6986262
0.35562676 -0.061371006 1.0880934 0.11517374 0.9038203 0.5638662 0.61501646 0.3907188
0.11185655 0.25552925 0.85623956 -0.1780043 0.7873649 0.06051793 0.8437828 -0.013610586
0.72341007 0.04883702 1.111125 1.0000017 0.9034542 0.6434788 0.41986814 0.4604662
0.11011793 0.40784037 0.9587829 0.42883235 1.0867349 0.62190276 0.37884793 -0.29668102
0.4167325 0.15302104 0.31878766 0.7694898 0.37330365 0.37752506 0.40975598 0.13435285
0.8113989 0.18702193 0.2889336 0.18629687 0.48641473 0.20890811 0.9343217 1.0708278
0.42243293 0.7870722 -0.055309087 0.124146566 0.33309337 0.3594349 0.62123257 0.8436758
0.6689712 0.6932525 0.67407465 0.7315492 0.16842607 0.11866697 0.84190726 0.7922879
0.26396158 0.49257767 0.5531973 0.075796396 0.7458842 0.3109551 1.0173593 0.94207627
0.14012481 0.28022626 0.42685336 0.324697 0.55414534 0.7855369 0.59125245 0.893738
0.13223714 0.6766721 -0.0022821678 0.86682075 0.75011986 0.40139005 0.8829055 0.55746937
0.65177494 -0.06292549 0.21476471 0.37808013 0.08840138 0.73107415 0.69539076 0.46932855
0.45486584 0.6260993 0.6770258 0.29380235 0.12082641 0.69167787 0.6497145 0.62399304
0.282199 0.38545737 0.6848968 0.13012366 0.5456935 0.7870344 0.08028948 0.07315772
0.2339253 0.98639154 0.24071465 0.6539221 1.0235218 0.1997046 0.293175 0.16667546
1.3387825 0.42908913 0.16724068 0.26922953 0.48118523 0.8929376 0.5431333 0.8699658
0.39791837 0.6086495 0.16039723 0.77452594 0.36835206 0.7478327 0.77340806 0.84772694
0.22489305 -0.33545625 0.1758915 -0.040693775 0.37026158 0.3421354 -0.01810953 0.28542814
0.06144329 0.12356532 0.41852742 0.5837926 0.9834756 0.7827783 0.0527165 0.950022
0.9273229 0.68675244 0.6685226 0.15982486 0.952531 0.5208619 0.066337585 0.855391
0.2705084 0.19621368 0.38088983 0.31749457 0.69473404 0.9002733 0.71799785 0.42202327
0.24930741 1.1528078 0.032503255 -0.08084032 0.45687407 0.027060997 0.12122363 0.54334855
0.53182036 0.70165 0.74134964 0.36100975 0.32525584 0.102567725 0.3434392 0.4716493
0.65429837 0.57019204 0.800793 -0.0635954 0.412451 0.25465345 -0.10760454 0.33300048
0.9903773 0.9673387 0.38118866 0.6093425 0.23098424 0.11282803 0.07929306 0.8198488
0.96738046 0.8032547 0.4182552 0.54967535 0.27574512 0.99798024 0.11592091 0.013912423
0.40412843 0.35148343 0.062073797 0.4915812 0.49466607 0.700249 0.23323178 0.93215245
0.6938894 0.47504446 0.52365065 0.98470503 1.1720312 0.6482282 0.82303214 0.72378474
0.34990245 0.48251858 0.39837897 0.14803545 1.2569206 0.31391177 0.654323 0.11729029

sequential.convlstm2.convLSTMcell.conv.weight f4 [40, 20, 1, 3]
00000000: 6e79 fabd 57bd 21bc 878a 513d 481c 23bc
00000010: e5b6 543d 1fd9 bf3d 9c2f 5a3e ccab 603d
00000020: d129 dcbd 3c05 c93c fc3c 20bd 95d2 0ebe
00000030: e95e a7bd a6b8 0bbe 859c eebc 284a af3d
00000040: 99db bf3d 439c 073e 6dc8 59bd 873e 13bd
00000050: e2cd 96bc 1762 b83d c760 b6bd 1901 2dbd
00000060: 144d 83be 083c bebb 8805 fabd fd1e c43d
00000070: d1ee 86bc b677 1dbe 637c a13c 731a 81bc
00000080: 2555 8cbc 5784 9cbd 2eeb e93d e6ad b33d
00000090: fd90 563e d469 823e 0902 babc c949 4fbe
000000a0: 505e 2fbe 9949 babd af55 81be c5f0 a43e
000000b0: 0d76 073e 953e cb3c 6a12 34be c952 43be
000000c0: c857 993e ccbd 213e f83d 9c3d 7c12 503d
000000d0: 9135 b43e 8971 233e 1af6 943d 132a 793e
000000e0: 0c55 573e a613 f0bd b479 75bc 3c20 963e
000000f0: 59fa 6fbe b299 c4bd 3c54 013e 26c4 ed3c
00000100: 9049 033e 2537 65bc b8ca dabc 6aee 4f3b
00000110: ffba 64bd 5485 cebd a4a7 abbd e8ac 8b3d
00000120: 501a 37be c2bf b3bc e60f a83c 8648 0bbe
00000130: a684 64bc 5623 6ebe c80b 97bd 015a 38bc
00000140: 42f4 b6bd 30df 40bd b219 63bd f4ac 18bd
00000150: 530f 533d 9512 4d3e a87e 9f3d 07da 66be
00000160: 84bb e03c 358a e33c 6822 273e fde5 193e
00000170: 0c5f 5a3e 0dd8 62be 5827 d5bd 38fc 17bd
00000180: ea6b cebd 755b 20be e80c 8a3d 7ef8 38be
00000190: 68fe 243e 255e 283d b401 473e 3cde a5bd
000001a0: 9b55 8cbc afea 4abd d70d 94bc 9385 fd3d
000001b0: 6602 a9bd 7658 45be ecfd c4bd 58e5 973e
000001c0: ec9b fbbb c7a2 863d e138 673d 04a0 793d
000001d0: 4cdb 203d 058c e63d 5598 c6bc 2895 5abc
000001e0: 7dd3 7cbd 2308 67bb 4d6f aabd cd52 93bd
000001f0: e695 1f3e 2d30 5c3d 3e1e 803e 63ab 913d
00000200: 5450 4c3e f72e 233c 3db2 8ebd 1ba3 b1bc
00000210: a8f9 9c3d 4c98 7fbc 7e15 c9bd a85b 813d
00000220: 4fa2 8f3c 48d3 5c3d 6e9f 0e3d 2bef fe3c
00000230: ebb2 f7bd 2016 04be 7b90 173d 8b89 c4bd
00000240: e182 f6bd 6869 d5bd 9dac b1bd 56ed 183e
00000250: b3f1 a4bd cd2d 29bd 216d 133e 1396 613e
00000260: b0aa 75be 14d4 66be 873c aebd 7915 073e
00000270: b599 863e 40d1 dc3d ec58 213d 9aaa 23bc
00000280: 61c0 13be c027 b2bd 653c 42be 0a98 48be
00000290: 51a8 153e c873 32bd f3c5 f5bc d3ef bbbd
000002a0: 00ec 483e be88 71bc ac66 bebd c444 163e
000002b0: 2d0a 5f3e a93a 103d 11fd ef3e 9f6b e4bc
000002c0: 911c bf3e f863 353d 7df1 5a3c ab78 073d
000002d0: 8912 483e ea10 0d3e 62b5 8c3e 9d27 ebbd
000002e0: b3f6 21be e31c 32be 9b31 f5bd b2b6 093d
000002f0: 7e8e 713e 7c05 b23d 672c ccbd 5e9a a9bd
00000300: 95f9 9dbd 789f bb3b 4e8c 763d 0e21 58be
00000310: 4c0c a6be 8103 aabd e3c3 ebbd 59e5 443d
00000320: 5ca0 f8b9 1ee3 9ebe fd19 37be ee5b 12be
00000330: 6a2f 1a3e ece4 9abd bfcf e7bc 98b2 003a
00000340: 246e de3d 9465 f93c 1828 593d c5a3 6ebc
00000350: bd49 8b3d a55a 30bc 19fc dd3d 3a2a 4e3e
00000360: dbb6 303e fa7d 4e3e 3bc7 a93d 48b5 a53d
00000370: deaa 103d 6017 09be 92de 6fbd 2ad2 acbc
00000380: 251b 19bc b585 b2bc c926 523c 4970 593d
00000390: 5768 4a3e ab96 fd3d a4c1 923d 7bcb 363d
000003a0: d25a 2d3f 080c 973e 06df 293d 6c84 9abb
000003b0: 715d 8e3d 2a46 99bc dc8d 6fbd e0c6 aa3e
000003c0: 134e 9ebb 0109 7d3e 0e88 063e 10d6 633e
000003d0: d034 2d3d 72a9 e4bd 3641 81be 6adb b73d
000003e0: 19e0 fdbc 4c8e 213e 549c 0c3e 5f1c 233e
000003f0: 73ab 17be 8698 9cbc d7c2 d13d e541 83be
-0.12230192 -0.009871802 0.0511575 -0.009955473 0.051932234 0.093675844 0.21307224 0.05485134
-0.10750163 0.024538629 -0.03912066 -0.13947518 -0.081723996 -0.13644657 -0.029127369 0.08559066
0.09368057 0.13243203 -0.053169657 -0.035948303 -0.01840872 0.09003084 -0.089051776 -0.042237375
-0.25644743 -0.005805496 -0.12208086 0.09576223 -0.016471298 -0.15377697 0.019712633 -0.015759682
-0.017130444 -0.07642429 0.1142181 0.08773403 0.20953746 0.25471365 -0.022706049 -0.2024299
-0.17125821 -0.09096069 -0.25260684 0.32214943 0.13228627 0.024810115 -0.1758515 -0.19074549
0.29949784 0.15795058 0.07629007 0.050798878 0.35197118 0.15961279 0.07273503 0.24332456
0.21028537 -0.11722498 -0.01498263 0.29321468 -0.23435344 -0.095996276 0.12629789 0.029024195
0.1282103 -0.013990198 -0.026707992 0.00317278 -0.055842396 -0.10084024 -0.08381584 0.068200886
-0.17881131 -0.021942023 0.020515393 -0.13601884 -0.0139476415 -0.23255667 -0.07375294 -0.011251927
-0.08933307 -0.04708785 -0.055444427 -0.037274316 0.051528286 0.2002662 0.0778783 -0.22544108
0.027433164 0.027775863 0.16321719 0.1502914 0.2132532 -0.2215273 -0.10407895 -0.03710577
-0.10079177 -0.15659888 0.06740743 -0.18063542 0.16112673 0.04110541 0.19434243 -0.080990285
-0.017130664 -0.049540218 -0.018073006 0.12378993 -0.082524106 -0.19272026 -0.09618744 0.29667163
-0.0076784994 0.06574016 0.05645073 0.06094362 0.039271638 0.11257175 -0.02424256 -0.013341226
-0.06172513 -0.0035252653 -0.0832201 -0.07193527 0.15584525 0.05375688 0.25023073 0.071127675
0.19952518 0.009959928 -0.0696759 -0.02168422 0.07664806 -0.015600275 -0.098185524 0.0631631
0.01753345 0.05391243 0.034820013 0.031119904 -0.12094673 -0.12899065 0.03700302 -0.09596547
-0.12036682 -0.10420495 -0.086755015 0.14934286 -0.08053913 -0.041303445 0.14397098 0.22029905
-0.23990893 -0.22541839 -0.085076384 0.13191785 0.26289144 0.10782099 0.039391443 -0.009989405
-0.14428855 -0.08698988 -0.18968351 -0.19589248 0.14614989 -0.04356745 -0.030001616 -0.09176602
0.19621277 -0.0147420745 -0.09296927 0.1467467 0.21781226 0.035212193 0.46872762 -0.027883349
0.37326482 0.04428479 0.013363239 0.033074062 0.1953832 0.13775983 0.27482134 -0.11482165
-0.15816765 -0.17393832 -0.11972352 0.033621497 0.23589513 0.08692452 -0.099694066 -0.08281396
-0.077136196 0.0057257973 0.0601924 -0.2110636 -0.32431257 -0.083014496 -0.11511972 0.048070285
-0.00047421723 -0.31032652 -0.17881007 -0.14292881 0.1505715 -0.07563195 -0.028297303 0.0004909425
0.108608514 0.030443944 0.053016752 -0.014565413 0.06801174 -0.010763799 0.108390994 0.20133296
0.17257254 0.20165244 0.08289953 0.08091217 0.0353192 -0.13387823 -0.05856187 -0.021096308
-0.009344851 -0.021792272 0.01282663 0.0530856 0.19766365 0.12382253 0.0716584 0.044627648
0.67716706 0.29501367 0.041472457 -0.004715493 0.06951416 -0.018710215 -0.058484897 0.33354855
-0.0048310845 0.24710466 0.13137838 0.22249627 0.042286694 -0.11165132 -0.25245064 0.08977397
-0.030990647 0.15776938 0.1373151 0.15928791 -0.14811496 -0.019115698 0.10242241 -0.2563621
